best_model_2.pth (torch, 41446 bytes, 6 tensors)

fc1.weight f4 [128, 2]
00000000: f440 193f b35c f23e e814 92a7 aa6a 2499
00000010: e908 dc3e 63c3 fbbe 401b b73e 7bc4 073e
00000020: c47e f73e 3a78 09bf f992 a5be 5042 f73d
00000030: 9ccd 14bf 1b61 11bf f433 133f 4ba2 733e
00000040: 2c45 9ab6 c5ec 7d03 72e5 b43e 00bb d93e
00000050: 063e d8b6 cc25 86a0 4d5b e624 5d6c 0500
00000060: 7a7b 1d3f 436d df3e b1fa f1af bc05 0600
00000070: 12b1 d23d 755a d53e 9e61 87bd ad1d e9be
00000080: 9d7a 0500 ec9d f99c bb02 02bf 532c 9f3e
00000090: 2712 893e 2caf dcbd e481 99be 0d93 17bf
000000a0: d271 0500 6529 4cb6 0512 503f 67fa 4fbf
000000b0: ff6e 17bf c99b 9d3e 6aa8 99bd 5be5 a53e
000000c0: 5709 09ae 15bd 2ab2 c7b0 2cbf 8c84 c63e
000000d0: b4db 0680 4c93 95a0 0f17 69b4 e5f4 a6b1
000000e0: ff94 5fbe 6e80 05bf 2c44 b63e 3666 a9be
000000f0: 2a81 083f 965a 1bbf 26f7 b43e dd4a aebd
00000100: c588 a32c a97f 0580 889f bbbd 3f6c 16be
00000110: a35d 0580 3765 0500 a5aa ccbe 7546 d73d
00000120: 6fde 7cbe 677f 16be ff1f 133f 1e2a 7f3d
00000130: cf36 c2be a96a 133f 3b00 1ebf 919e 223f
00000140: 308f dcbc e6d3 d43e 5728 d73e c3ed fcbe
00000150: ca5e 0580 5e30 2da8 e086 01bf 3ddf a53e
00000160: 8ecc 1b3e b3d8 1ebf e3df 23ab 5959 0580
00000170: 304d 013f b1c0 6d3e d130 a5bd 4e8b 2e3e
00000180: 405f 0500 6662 0580 7eef a33e 4638 443d
00000190: 9570 29be 915a ca3e bb4d 2c3e 3762 0f3f
000001a0: 2ea4 ec35 7787 0500 0cb4 e93e 3567 b03e
000001b0: 8757 1d3f c437 1dbf 3ddc e494 6598 5daa
000001c0: ac9d 2b3f 97c7 2b3f 02c2 683e 6a03 e13d
000001d0: b061 4abe e0f8 56be 8862 513e da6e 023f
000001e0: e946 a13e 21e3 b03e 5a0e b53e 5c1f 07bf
000001f0: 7d07 babe d66b cf3e 88f0 f0be 26a0 f2be
00000200: 67e0 14bf 1e4e f13e 24ea 86be 7e79 efbd
00000210: aeb8 2ab7 274e 04b6 c4b5 1c3f 09d8 593e
00000220: 085c c0bc 733b 37be 2705 2e33 0373 8db4
00000230: 10a7 03b7 0fa7 0500 1c24 c6be 28a1 513e
00000240: 7a91 0680 3657 0580 1710 42be 00b6 3a3e
00000250: 405d 0580 495c 0580 db8b c2bd 2497 613e
00000260: c3c3 983d c446 0c3f f112 8994 8358 0500
00000270: 9439 c33e 6587 81be e55b 0580 3168 0580
00000280: fffd 013f d87d dd3e 7d8e cc3e 54da b63d
00000290: 8acf 529f 6a6c 0580 2b18 dcbe bff4 173f
000002a0: fa9c f1be 6392 633e 0d60 433e 33c1 873e
000002b0: 7bcf 39b6 30b6 a7b5 a829 d0bd 64b0 2d3f
000002c0: 70ef a2be 986e e8be 5f98 afa2 708a 2e9e
000002d0: 7cbb 3ea8 ca66 0500 c05f 0580 1c6d 0580
000002e0: 59c9 1ca6 c60d 8d31 7779 d73c 5d10 c73e
000002f0: 146b 853e cf7a 2e3e 09a5 2b9f cdcc 83af
00000300: 62c8 123e ac5a 6abe 626b d63e 4aa3 4c3e
00000310: 9013 b4be 3613 b03e 2174 3399 dc71 a5ae
00000320: 32bb 6f0c a01f 1bb6 6955 2a3e e9c5 f7be
00000330: 8cf7 163f d1c8 263f ef2d b2be 6a38 fa3c
00000340: 89d6 3abd a896 483d 467b c1ac 01ed 0423
00000350: 1358 0580 5aef 5eb5 279a 4e25 9b54 7821
00000360: 572a 06a9 f582 b2a1 51fd cd3e 8531 163f
00000370: 0cb2 e2b0 383a 2420 297f e13e 1283 92be
00000380: 04e6 f73e 9e7f b0be 28b9 593c c463 593e
00000390: 2c65 0480 8392 c9ab 23b8 16af f40e 1b29
000003a0: b6e3 069b 4645 b9a2 b95a 1db4 bb4e 7fb6
000003b0: f46f aabe 5a29 1a3f 925f 3daf c566 0500
000003c0: c726 983e 9406 ab3e 1eab c83e bbd3 9cbe
000003d0: 213a 7cbe 9b01 773e 961b 1d3e 1ef7 193f
000003e0: 8dec 079d 967f 0500 8da4 43b1 cfe2 9db4
000003f0: e6ab 103f 70b7 093f eeac 7e3e 4071 c03e
0.59864736 0.4733635 -4.0545807e-15 -8.500142e-24 0.42975548 -0.49172506 0.35762978 0.13258545
0.48338902 -0.53699076 -0.32338694 0.12073195 -0.58126235 -0.56788796 0.5750115 0.23792379
-4.5976103e-06 7.4621816e-37 0.35331303 0.42525482 -6.444522e-06 -2.2725495e-19 9.990127e-17 4.98051e-40
0.61516535 0.43638048 -4.4015772e-10 5.5307e-40 0.1028768 0.41670576 -0.06610416 -0.45530453
5.03163e-40 -1.651826e-21 -0.50785416 0.31088504 0.26771662 -0.10775599 -0.2998191 -0.59208757
5.00009e-40 -3.0422464e-06 0.81277496 -0.8124146 -0.5915374 0.30782917 -0.075028256 0.32401547
-3.115849e-11 -9.938295e-09 -0.6745724 0.38773 -6.29828e-40 -2.5339055e-19 -2.1708205e-07 -4.859077e-09
-0.21834181 -0.52149093 0.35598886 -0.33085793 0.5332209 -0.606851 0.3534481 -0.08510373
4.647923e-12 -5.04973e-40 -0.091612875 -0.1468973 -4.92768e-40 4.95487e-40 -0.3997394 0.105114855
-0.24694227 -0.14697038 0.574707 0.062296025 -0.3793244 0.57584625 -0.617191 0.63523203
-0.026923746 0.41567916 0.42022964 -0.49400148 -4.93181e-40 -9.613917e-15 -0.5059643 0.3239688
0.1521475 -0.62049407 -5.821994e-13 -4.9123e-40 0.50508404 0.23218037 -0.080659516 0.17045328
4.93347e-40 -4.94476e-40 0.32018656 0.04790523 -0.16546853 0.39522222 0.16826527 0.5600924
1.7631153e-06 5.07773e-40 0.45645177 0.3445374 0.6146168 -0.61413217 -2.3108985e-26 -1.9681616e-13
0.67037463 0.67101425 0.22730258 0.10986979 -0.19763827 -0.20993376 0.20447743 0.50950396
0.31499413 0.34548286 0.35362512 -0.52782226 -0.36333838 0.4051196 -0.4705851 -0.4738781
-0.5815491 0.4712991 -0.2635051 -0.11693095 -1.0175789e-05 -1.9715023e-06 0.6121485 0.21273817
-0.023481384 -0.17893772 4.0517218e-08 -2.634698e-07 -7.847106e-06 5.19107e-40 -0.38699424 0.20471632
-6.032e-40 -4.90463e-40 -0.1895145 0.1823349 -4.92629e-40 -4.92283e-40 -0.094993316 0.22030312
0.074592136 0.5479548 -1.3840936e-26 4.9093e-40 0.38129866 -0.2529861 -4.92143e-40 -4.96554e-40
0.5077819 0.43260074 0.3995246 0.089283615 -4.4640902e-20 -4.98069e-40 -0.4298719 0.5935783
-0.47190076 0.22223811 0.19079609 0.26514587 -2.7687918e-06 -1.2495493e-06 -0.10164195 0.67847276
-0.318233 -0.45396876 -4.7595174e-18 -9.2401115e-21 -1.0587773e-14 4.96051e-40 -4.93526e-40 -4.98319e-40
-5.439625e-16 4.105206e-09 0.026303036 0.38879672 0.26058257 0.17039035 -3.6347172e-20 -2.397428e-10
0.14334252 -0.22886151 0.41878802 0.19984165 -0.35171175 0.34389657 -9.277535e-24 -7.523557e-11
1.8468222e-31 -2.3115208e-06 0.16634144 -0.4839318 0.58971477 0.6515017 -0.3480067 0.030544478
-0.045614753 0.048971802 -5.499076e-12 7.205922e-18 -4.90773e-40 -8.3049747e-07 1.791988e-16 8.4137643e-19
-2.97907e-14 -1.2096413e-18 0.40232328 0.5866931 -1.6494268e-09 1.3910603e-19 0.44042328 -0.28615624
0.48417675 -0.34472364 0.013288774 0.21229464 -4.03636e-40 -1.4322574e-12 -1.3707839e-10 3.4429884e-14
-1.1157798e-22 -5.0217697e-18 -1.4654769e-07 -3.8043788e-06 -0.33288538 0.6021935 -1.7223403e-10 4.96044e-40
0.29717085 0.33403456 0.39193052 -0.30630288 -0.2463155 0.24121706 0.15342554 0.60142696
-1.7989395e-21 5.04947e-40 -2.846977e-09 -2.9408554e-07 0.56512296 0.5379553 0.24870655 0.37586403

fc1.bias f4 [128]
00000000: 8f86 d53e 24bb 57b4 b3dc 0c3f 664d ef3e
00000010: 4adc 223f 2082 0c3f 9bea 143f f129 153f
00000020: 3774 0580 4686 a43d fab3 23b7 5d76 6fb7
00000030: 87cd 9abe a0de 1cb6 251b 203f 5171 ce3e
00000040: d0ec 2ab5 dc8c 173e 6e37 7d3e cad1 083f
00000050: d358 0580 901b bdb8 f8f7 0d3f a288 223f
00000060: 682e 3cb1 a594 5c3e 3b61 0500 5e06 83b2
00000070: 7f95 d23e 8579 6fbc 05a4 213f f765 4c3c
00000080: 50bd 86b4 8155 793e c200 91b3 4663 623e
00000090: ea8e fb3e c365 1fbb c1e8 1d3f a2f0 29bc
000000a0: 9b09 453b 8e9c 973e 9717 b3b6 8791 0b3f
000000b0: c839 2c3f 9fbd 5eb3 c0c9 98be 3615 763e
000000c0: 9106 9bac 33b4 bbbd 46bf 153f b970 3abe
000000d0: 43df 20b7 767e 0e3f 1f80 feb8 a309 3db7
000000e0: aca9 2bbf 97f3 2b3f 3186 9c3e da45 cf3c
000000f0: 6470 133f 6639 f13e d1e8 b93e da17 f33e
00000100: 3333 6c3e e49d fd3e 336b 0600 571d ae3e
00000110: a024 063f 03c7 abb1 8fa9 0580 e172 ef3e
00000120: 2dae 23b7 e417 0dbd dd2d 0ea6 4851 ea3e
00000130: 2415 113f 0461 0500 d038 793e 98e6 dfa8
00000140: b5e0 6ebe 9c50 a73e cd2f 44b3 9682 883e
00000150: c68f 5e3e 68e0 0b3f 2714 afb6 3df7 10be
00000160: 8674 223f 3cde 0daf c665 0580 9205 4bab
00000170: 67a4 b4b4 182b b53e 7a4c 2e3d 4378 0580
00000180: 0d8f dd3e d8ca 0f3f b68b d93e 2b65 0580
00000190: 2268 0500 9239 743e d424 1d3f c101 843e
000001a0: 3f01 5cba 50d5 07a4 b459 0500 77cc adb6
000001b0: 30e9 a3aa ada3 183e 8e93 bfb3 1de2 f03e
000001c0: 40a8 223e a4f7 d2bc 9d77 daae d8fd cfb2
000001d0: 2b60 0500 2f68 6405 21fc cc3d 08be 50a8
000001e0: d739 483e bf83 073e 99d5 803e 1089 ec3e
000001f0: e255 6da1 0e69 16b7 43d3 993d dbac a83e
0.41704223 -2.0091517e-07 0.5502426 0.46738738 0.63617384 0.54886055 0.5817048 0.5826712
-5.00868e-40 0.08033423 -9.757461e-06 -1.4273069e-05 -0.3023493 -2.3375396e-06 0.6254142 0.4032083
-6.367454e-07 0.14799827 0.24728176 0.5344511 -4.91042e-40 -9.017356e-05 0.55456495 0.63489735
-2.738398e-09 0.21541078 4.94057e-40 -1.5253303e-08 0.4112968 -0.014616375 0.631409 0.012475482
-2.5097188e-07 0.24349023 -6.7522265e-08 0.22108182 0.49132472 -0.002432213 0.6168328 -0.010372313
0.003006554 0.2961163 -5.337362e-06 0.5451893 0.6727567 -5.1860862e-08 -0.29841423 0.24031529
-4.406094e-12 -0.0916523 0.58494985 -0.18207063 -9.588725e-06 0.55661714 -0.00012135528 -1.1267522e-05
-0.67055774 0.67168564 0.3057113 0.025301863 0.5759337 0.47114104 0.36310437 0.47479135
0.23066406 0.49534523 5.89469e-40 0.3400676 0.52399635 -4.99938e-09 -5.20004e-40 0.46767333
-9.756111e-06 -0.034446612 -4.9328303e-16 0.45765138 0.56672883 4.9398e-40 0.24338078 -2.4857978e-14
-0.23327906 0.32678688 -4.567828e-08 0.2666213 0.21734533 0.5463929 -5.2177525e-06 -0.14156814
0.6345905 -1.2902829e-10 -4.95687e-40 -7.212782e-13 -3.364723e-07 0.3538444 0.042553402 -5.02319e-40
0.43273202 0.5616889 0.42489403 -4.9547e-40 4.96533e-40 0.23850086 0.6138432 0.25782588
-0.00083925197 -2.945414e-17 4.91357e-40 -5.1796046e-06 -2.9116423e-13 0.14906187 -8.9209706e-08 0.4704751
0.15884495 -0.02575285 -9.93474e-11 -2.4213406e-08 4.93676e-40 1.0739644e-35 0.10009027 -1.1587526e-14
0.19553314 0.13233851 0.25162962 0.4619832 -8.041239e-19 -8.965157e-06 0.07510998 0.32944378

fc2.weight f4 [64, 128]
00000000: 92d4 333d 9296 0580 ff0c 49bd af21 883d
00000010: b0a4 b0bb 01f5 8a3c c5a4 663b 46ad 0ebd
00000020: 9671 0580 0dff 323d 486e 0680 1060 0580
00000030: 7f5b 073d 4393 0500 186c 03bc e9e5 34bc
00000040: d160 0500 59a4 093d 888c 67bb aba7 243d
00000050: 9773 0500 e66a 0580 075c 873c 9cab c3bb
00000060: 055f 0580 c797 e03c 2a5c 0580 4775 0500
00000070: a064 79bd 0e81 9ebd 3bd1 5d3d 16f9 6f3d
00000080: 085f 0500 9103 62bd de6e 0580 cb36 f8bb
00000090: 04c9 bfbd 4aea f33c 668d aebd 1491 83bc
000000a0: 8398 cc3c d61f 12bd db5d 0580 66f2 703d
000000b0: 898b 013d 8c76 0580 3b95 553c 20a4 6e3d
000000c0: cb66 0500 eedf e63c 9ff7 773d f18b a2bd
000000d0: f165 0580 5133 a5bd df92 0500 9ff7 0580
000000e0: b10b c9bc ebed 73bd 22ed 73bd cc2c b2bd
000000f0: 8b3d 75bd 3e5c eb3b 124a d9bc 4c0a c0bc
00000100: 05f4 a0bc d0d4 453d 445d 0500 4132 63bd
00000110: a5d8 673d 077a 0580 fc5f 0580 fa21 d8bb
00000120: e2ac 0500 f7fb 3cb6 9245 0680 bdf9 3d3c
00000130: 7b67 c9bc 34af 0500 e817 f3bc 0069 0500
00000140: 4d8e 0500 a5c9 7cbc 1b6f 0580 0b15 83bc
00000150: eb5d 5c3d 2968 e83c f56f 0580 8d91 01bc
00000160: f36b 3f3d fd5a 0680 2b58 0500 cc5f 0580
00000170: 376e 0580 0cae 483b 69ca 573d cebf 0500
00000180: 6822 b4bd d0f1 183d dbd4 bcbb 5262 0500
00000190: b3a3 0580 0070 353d d9aa cdbd c732 2d3a
000001a0: 156c 0580 f5cb 0500 2bc7 0500 5686 0580
000001b0: ac61 0500 5473 21bd 7961 0580 5151 733d
000001c0: fad1 12bd eeba 723a 4e8c 0580 325c 0580
000001d0: 1a88 0500 3c7f 0500 efdd d13c 1ca3 0580
000001e0: d33f 7abd 57af 073d a664 6a3d 77a1 403d
000001f0: 787d 0500 138d 0500 a6f0 3e3d afa6 843d
00000200: bf30 043d 0687 0500 bae6 8bbc 0825 263d
00000210: dd6d 573b 1c79 32bc 593f 863d b410 56bc
00000220: f25c 0580 1e5a 30bd 3a68 0580 45a3 0500
00000230: 629f bc3c 996d 0500 5101 d2bb 20ec 563d
00000240: 6f70 0580 607e e3bc b813 95bd 0fe8 46bd
00000250: 158b 0500 6575 0580 1f62 913d 82cd a5bd
00000260: d7e9 0500 fafa e73c 4670 0500 7867 0500
00000270: dd00 a9bb aec7 0e3d 2e9f bdbd 34cf ccbc
00000280: 3774 0580 6670 b2bd 2691 0580 821f c7bc
00000290: 0dd9 c7bc b589 1abc 4c8e a0bd fc2d 9f3c
000002a0: 8c93 93bd 315b 193c 3569 0580 bf60 9ebd
000002b0: 6d88 f0bc ab69 0500 1c4f 153a e4c2 483d
000002c0: 8d7d 0500 6442 293d f326 6c3d 010f f83c
000002d0: ee65 0580 d79a 943d f257 0500 d36b 0500
000002e0: 6bfb b93c 9932 073d 9e05 813d 4e05 9e3d
000002f0: 4202 6e3d e9d8 ce3c a53a 80bc c868 833d
00000300: 240a 4fbd ea6e 06bc 995b 0500 fcc3 e0bc
00000310: 8353 893d 5c9a 0680 95dc 0580 0159 273d
00000320: 5e6e 0500 430a 813c 7d64 0500 29d3 38bd
00000330: 75a0 8f3d 3e58 0580 0870 98bd 9d5e 0580
00000340: 2369 0580 d375 2f3c d977 0680 903e ef3b
00000350: d0e9 37bc 6510 3b3d d068 0580 d547 42bd
00000360: c926 8abc 3b75 0580 b862 0500 8dda 0500
00000370: ee60 0500 1bd0 26bd 3afd 9f3c fa80 0500
00000380: 26bb b1bd e34a b5bc 3cb0 12bb 3458 0500
00000390: 386f 0500 52d7 b4bd 05ba b6bd cc23 dc3a
000003a0: 2070 0580 73c6 0580 8a69 0500 dfa4 0500
000003b0: a37b 0500 703c 82bd 2487 0600 806b 21bd
000003c0: c8dc 033d b101 473d de5c 0500 b77a 0500
000003d0: 8e60 0500 a57c 0580 4947 9b3d 42a0 0500
000003e0: b431 81bd 78e6 073d e250 273d bae5 993d
000003f0: edf0 0580 b564 0500 265a 063d 0018 86bd
0.043903895 -5.13192e-40 -0.04908466 0.0664705 -0.005390726 0.01696253 0.0035193425 -0.034833215
-4.99924e-40 0.043700267 -5.90574e-40 -4.93638e-40 0.03304624 5.12005e-40 -0.008021377 -0.011041143
4.93909e-40 0.033604 -0.0035331566 0.040198963 5.00643e-40 -4.97525e-40 0.016523374 -0.005971385
-4.93264e-40 0.027416123 -4.9224e-40 5.01249e-40 -0.06088698 -0.07739459 0.054154616 0.058587156
4.93268e-40 -0.055179182 -4.98949e-40 -0.007574891 -0.093645126 0.029774804 -0.08523063 -0.01606039
0.024975067 -0.035674892 -4.92846e-40 0.05882492 0.03162721 -5.01704e-40 0.013036068 0.05826199
4.96053e-40 0.02818295 0.060538884 -0.07936848 -4.95747e-40 -0.080664285 5.11865e-40 -5.48007e-40
-0.024541708 -0.059553068 -0.05955232 -0.086999506 -0.059873145 0.007182627 -0.026524577 -0.02344241
-0.019647608 0.048298657 4.92635e-40 -0.055467848 0.056603093 -5.02953e-40 -4.9361e-40 -0.006595847
5.21196e-40 -2.8160846e-06 -5.7597e-40 0.011595187 -0.024585476 5.22029e-40 -0.029674485 4.96844e-40
5.10225e-40 -0.015428935 -4.99035e-40 -0.016001245 0.053800505 0.02836998 -4.9934e-40 -0.007908237
0.046733808 -5.83653e-40 4.90806e-40 -4.93543e-40 -4.98715e-40 0.0030621318 0.052683268 5.27984e-40
-0.08795625 0.037339985 -0.005762679 4.94448e-40 -5.17902e-40 0.044296265 -0.10042352 0.00066069927
-4.9795e-40 5.32343e-40 5.30625e-40 -5.07368e-40 4.94216e-40 -0.039416626 -4.94144e-40 0.05940372
-0.03584478 0.0009259422 -5.0951e-40 -4.92251e-40 5.08002e-40 5.0482e-40 0.025618521 -5.1769e-40
-0.061096024 0.0331262 0.057224892 0.047028985 5.04187e-40 5.09785e-40 0.04661622 0.06477105
0.03227305 5.07615e-40 -0.017077792 0.04056266 0.003287188 -0.010893133 0.06555051 -0.013065506
-4.9252e-40 -0.043054692 -4.96567e-40 5.17748e-40 0.023025218 4.98494e-40 -0.0064088483 0.05247128
-4.99511e-40 -0.027770221 -0.07279152 -0.048561152 5.09071e-40 -5.01291e-40 0.07098793 -0.08095838
5.43063e-40 0.028317917 4.99454e-40 4.96295e-40 -0.0051575736 0.0348584 -0.09258877 -0.025001146
-5.00868e-40 -0.087128446 -5.11247e-40 -0.024307016 -0.02439549 -0.009432246 -0.07839641 0.019431107
-0.07205877 0.009360121 -4.96919e-40 -0.077332966 -0.029361928 4.97084e-40 0.0005695687 0.049013987
5.04217e-40 0.04132308 0.057654332 0.030280592 -4.95743e-40 0.07256096 4.90726e-40 4.97858e-40
0.022702893 0.033007238 0.062998995 0.077158555 0.058107622 0.025249915 -0.015652964 0.0641647
-0.05054678 -0.008205155 4.92037e-40 -0.027437203 0.06705382 -6.06387e-40 -5.38307e-40 0.040856365
4.9877e-40 0.015751963 4.95226e-40 -0.045123253 0.070130266 -4.90833e-40 -0.07443243 -4.93118e-40
-4.96893e-40 0.010709244 -5.94006e-40 0.007301159 -0.011225179 0.045669932 -4.96777e-40 -0.047431786
-0.016864197 -5.01232e-40 4.94591e-40 5.37579e-40 4.9395e-40 -0.04072581 0.019529928 5.05446e-40
-0.08678274 -0.022130435 -0.0022382876 4.90819e-40 4.99075e-40 -0.088301316 -0.08922199 0.0016795336
-4.994e-40 -5.30368e-40 4.97038e-40 5.18322e-40 5.0353e-40 -0.06359184 5.99492e-40 -0.03940916
0.032192975 0.048585597 4.92492e-40 5.03199e-40 4.93815e-40 -5.03892e-40 0.07581956 5.16667e-40
-0.06308308 0.033178777 0.04084862 0.0751452 -5.45605e-40 4.95304e-40 0.032800816 -0.065475464

fc2.bias f4 [64]
00000000: 29ae 8abd 9f88 6d3c 890c a23c 2ebe cdba
00000010: 3414 873d ed7d d497 404b 4d3d 76b8 bd3b
00000020: bced c13d 656a dd3c baf7 c2bb 6bc1 b8b3
00000030: df56 d9bc fc81 21bd eeec ac3c 0a51 b93d
00000040: 79d6 5abc f6fd ba3d 7211 933d b119 b2bc
00000050: 3b4e 133c 5937 24bd adbf 5a3c 4a67 f8bb
00000060: ba21 433d d436 953c 3bac d1ba 5b58 0580
00000070: d815 b0bd b094 4a3c 7408 ea3c fe9f 00bc
00000080: 2f6d a9bd b4fc 8ebd 5c9a 503d a8f1 473d
00000090: 32ee 90bd a999 633d d739 11bd 468a 7fb9
000000a0: bb8f f0bc 8bd8 ec3c d28e f73c 956a a7bd
000000b0: 3aa3 12bd 7401 89bc 0446 9cbc bbed 81bd
000000c0: 395c 09bd bc98 85bd 1a9f 2cbd aa33 8bb8
000000d0: 4dde 98bd 5d9a aabc cbcf 82bb 05d0 98b7
000000e0: 2236 e2ba b835 84bc 4b70 afbd 8da3 b0ba
000000f0: da5d 253d e165 63bc 5451 d5b8 4f4c 373a
-0.067715 0.014497905 0.019781368 -0.0015696937 0.0659565 -1.3731967e-24 0.050120592 0.0057898117
0.09469172 0.027028272 -0.0059499415 -8.60335e-08 -0.026530681 -0.039430603 0.02110907 0.0904866
-0.013356798 0.091304705 0.07181062 -0.021740766 0.00899082 -0.040091846 0.013351363 -0.0075806724
0.047639586 0.01821462 -0.0015996763 -4.90873e-40 -0.08597916 0.012364551 0.028568484 -0.007850645
-0.08272778 -0.06981793 0.05092846 0.048814446 -0.07076682 0.055566464 -0.03545555 -0.00024370206
-0.029365411 0.02891185 0.03021947 -0.08174626 -0.035800196 -0.016724326 -0.019076355 -0.063441716
-0.033535216 -0.065232724 -0.04214392 -6.63766e-05 -0.074642755 -0.02082556 -0.003992056 -1.8216679e-05
-0.0017258564 -0.016138896 -0.0856634 -0.0013476476 0.040372707 -0.01387927 -0.0001017178 0.0006992267

fc3.weight f4 [16, 64]
00000000: 2bd3 783d ccd7 5cbd 5896 ccbc ddfc f0bb
00000010: b508 51bd 8966 0500 59a2 bfbb 166b 5abd
00000020: 217c 8ebc db89 873d 4000 ca3b b65d 0580
00000030: c31d a6bd ce1c abbd ae59 0580 e179 e5ba
00000040: 525e e0bd 3801 ca3a dfdd 373c e00b 27b5
00000050: 3125 e73c 0992 11bd 5f93 e83d 2c5d 9e3c
00000060: 1b18 ecba ba86 9abd 48a2 0680 678b 0500
00000070: a6e1 7639 87e3 d93c 205b a03d 2bf7 54bb
00000080: 3143 e6bd 86b2 f9ba 9d42 bc3b 06fb d9bb
00000090: 7669 c3bd d694 883c 15b2 e63c 2523 263b
000000a0: 3740 193d b2f2 413d 86d7 2ebc bc08 af3d
000000b0: 29a5 a1bd a591 343c a4a9 c93d 4904 d1bc
000000c0: a190 bf3d be18 f6bb 43ae db3d 8858 22bb
000000d0: 2216 e63b ed24 5d9c 2ef0 90bb ea5c 0500
000000e0: 2b8d d1ba 5364 2fbd 6e71 0a3d 90a2 a53a
000000f0: d12a aa3d 54bc 9dbb 888b 90ba 1881 18ba
00000100: c04a e9bd 5971 6dbd 95dc c53b df7d f1bb
00000110: 07bb 9cbc 9463 0500 2a6e 89bc e9d6 4f3d
00000120: 550c d4bb 7e55 ddbd 920a b43b d858 0500
00000130: 1743 c0bd 0a2e c23d 6558 0580 ea70 fdbc
00000140: 7a4b 083d 844f 2ebd 9246 d3bb f19e afb3
00000150: d968 33bd f798 9b3d ccbd dfbd 5c13 dfbd
00000160: ca34 aaba b90b 943d 2f69 0580 bc60 0500
00000170: 99ad 613d 1403 403c 2a97 743d 894b adbb
00000180: a28e b73d c500 98bc dd31 75bc 8682 ac3c
00000190: 5d5d 8fbd c5c9 32bd d347 e9bc 901e 373b
000001a0: 7422 cd3c 71c9 cbbc 0b4a 053d 0c10 b53d
000001b0: 3c53 96bd 02de 193d 42d4 bfbc d10a 01bd
000001c0: cb2c 3e3b da0c e63d 0c23 8a3d 2e36 24bb
000001d0: 3afc efbb 5535 3a9b 090b 9cbb ef84 0500
000001e0: e71d 18bb c92d b0bd 9857 863d eda1 a23a
000001f0: a806 82bd 6920 b3bb f197 efba 1afa c0b9
00000200: 0f8a 073d a944 76bd 9d42 8b3c 6d34 e8bb
00000210: e91b 58bc 015e 0580 2a38 033a aa03 8b3c
00000220: 7a52 44bb c32e e63d 3da6 bf3b 3c58 0580
00000230: adba bcbd 59bd a83d 9658 0580 5a60 083c
00000240: 9e0c f2bc 1590 0dbd 6d1e 983d 9fa0 1f2a
00000250: 4966 a83c 2bb7 0dbc 9935 b6bc 19d1 cbbd
00000260: c6e9 daba 50cd ca3d 297c 0580 465c 0500
00000270: 73ac 89bd 8d90 2e3d 2348 95bc 2d4c 74bb
00000280: 31f8 babd 5601 c7ba a93d c1bc 0116 5dbd
00000290: d7b9 3d3d 1514 96bd 6434 7dbd 0a02 0d3b
000002a0: 6ccc 643c b701 a73d e361 32bd 6172 e8bd
000002b0: 0dd6 e53b 5289 b1bd fb46 c2bd 7693 593c
000002c0: 7610 1ebd e632 923d 1743 8bbd f036 5bbb
000002d0: 6589 b4bb afaf 8d19 bffa 88bb ea62 0580
000002e0: 959c 1fbb a979 d4bc f7d1 57bd 58fe 5f3a
000002f0: 383f 1a3d 46d1 b3bb 8a34 f6ba 1c1d f739
00000300: f0ec 49bd b471 04bb 8130 61bc de02 e3bb
00000310: 0662 973c 4573 0500 c395 cabb a6d8 1cbd
00000320: 0300 76bc 9eb7 873d ad4b de3b 3e62 0580
00000330: bd51 913d 9dd8 70bc a65a 0500 1f50 87bd
00000340: 5e25 3ebc 31f4 2a3c 9ea6 c3bd eb10 ac31
00000350: d355 233c 44af 973c e60c 7abd d3f1 00be
00000360: 4957 683a 63cd 593d 2b67 0580 3f5e 0500
00000370: a5ec 1c3b 9f41 c2bc a89d 2abd 09a2 4bbb
00000380: 4f71 7d3d 545f 24bd 504b 783b 53ea 8b3b
00000390: e4b5 e93a ca75 b73c c402 3fbd 9afa 803b
000003a0: 42c0 7fbc 4d28 ca3d 3106 d83b cd0d c63d
000003b0: f0b9 3f3d 2161 4fbd 0a2b 64bd e982 4cbd
000003c0: 84d0 cd3d 3064 bdbd fafc 433c 9fff f6ba
000003d0: 6517 093b ef9b ad19 6f0b 88bb c0f2 0580
000003e0: 8137 e7ba 52b8 83bd 822b b0bc 7108 dc3a
000003f0: 9799 5dbd 901d b2bb 0ccf 3b3a 7fe5 063a
0.06074826 -0.053916737 -0.024974033 -0.0073543624 -0.051033694 4.9596e-40 -0.005848211 -0.05332478
-0.017393174 0.06618091 0.0061645806 -4.92795e-40 -0.08111145 -0.083551034 -4.91348e-40 -0.0017507636
-0.1095549 0.001541174 0.011222332 -6.222963e-07 0.028215976 -0.03553966 0.11356234 0.019331537
-0.0018012555 -0.07545228 -6.09229e-40 5.09186e-40 0.00023544449 0.026597751 0.07829881 -0.0032495956
-0.112432845 -0.0019050397 0.0057452456 -0.006652239 -0.095415995 0.016672533 0.028161088 0.0025350538
0.037414756 0.047350593 -0.010671502 0.08546588 -0.0789283 0.0110210525 0.098468095 -0.025514739
0.09353758 -0.0075102737 0.10726597 -0.0024772007 0.0070216814 -7.317049e-22 -0.004423163 4.92509e-40
-0.0015987506 -0.042820286 0.03379958 0.0012636948 0.08308948 -0.00481371 -0.0011027912 -0.00058175763
-0.113912106 -0.057969425 0.0060382583 -0.0073697413 -0.01913215 4.949e-40 -0.016776163 0.050742064
-0.0064711967 -0.10807322 0.005494424 4.91049e-40 -0.09387796 0.094814375 -4.90887e-40 -0.03093763
0.033275105 -0.0425563 -0.0064476216 -8.177984e-08 -0.043801162 0.07597535 -0.10924873 -0.108923644
-0.0012985703 0.072287984 -4.9691e-40 4.93879e-40 0.055097196 0.011719484 0.059714474 -0.0052885455
0.08962752 -0.018555054 -0.014965502 0.021058332 -0.070002295 -0.043649454 -0.028476631 0.00279418
0.025040843 -0.024876328 0.032541316 0.08840951 -0.073400944 0.03756524 -0.023416642 -0.031504456
0.0029018398 0.1123292 0.06744966 -0.0025056708 -0.007323769 -1.5402792e-22 -0.0047620577 5.06865e-40
-0.0023211183 -0.08602483 0.06559676 0.0012407877 -0.06348926 -0.00546651 -0.0018279535 -0.00036807434
0.033090647 -0.060124073 0.016999537 -0.0070863278 -0.013190248 -4.929e-40 0.00050056225 0.01696952
-0.0029956386 0.11239388 0.0058486746 -4.9083e-40 -0.09215293 0.0823924 -4.90956e-40 0.008323753
-0.029547032 -0.034561235 0.07427678 1.4177764e-13 0.020556586 -0.008649628 -0.022242354 -0.099519916
-0.001670175 0.099024415 -5.03718e-40 4.92279e-40 -0.06722345 0.042618323 -0.018222874 -0.003727685
-0.0912937 -0.0015182893 -0.023588972 -0.053976063 0.04631981 -0.07328049 -0.06181754 0.0021516108
0.013964754 0.08154624 -0.043550383 -0.11349941 0.007014042 -0.0866877 -0.09486195 0.013279786
-0.038589917 0.07138614 -0.06799906 -0.0033449493 -0.0055095428 1.4650016e-23 -0.004180282 -4.94661e-40
-0.0024354805 -0.025936918 -0.052690472 0.0008544675 0.037657946 -0.005487594 -0.0018783968 0.000471332
-0.049298227 -0.0020209374 -0.013744474 -0.006927832 0.018479358 5.00528e-40 -0.006182404 -0.03829255
-0.015014651 0.06626819 0.0067839236 -4.9442e-40 0.070956685 -0.014700082 4.91696e-40 -0.06607079
-0.011605589 0.010434196 -0.09553264 5.007782e-09 0.009969193 0.01851619 -0.061047457 -0.12592249
0.0008863104 0.053174388 -4.96187e-40 4.92987e-40 0.0023944762 -0.023712931 -0.04165426 -0.0031071922
0.061875638 -0.040129974 0.0037886687 0.004269877 0.0017830697 0.022395033 -0.046633497 0.003936124
-0.015609803 0.09870968 0.006592535 0.09670601 0.046808183 -0.05062974 -0.055705108 -0.049929533
0.10049537 -0.09247625 0.01196217 -0.0018844492 0.0020918485 1.7950762e-23 -0.0041517536 -5.4626e-40
-0.0017640443 -0.06431641 -0.021505121 0.0016787184 -0.054101553 -0.005435653 0.0007164336 0.0005145892

fc3.bias f4 [16]
00000000: 4532 c33a 75e6 103d 560a 433d 4216 d83c
00000010: efcb 263d ad4f 493e 555d 5a3d c3d4 123d
00000020: de56 4f3d d09d 843e 088d 6b3e b910 63bc
00000030: fab7 adbc 8640 2d3d 1fc3 593d 01aa 07bd
0.0014892301 0.03537603 0.04761728 0.0263778 0.04072183 0.196593 0.053311665 0.035847437
0.050619952 0.2590165 0.23003018 -0.013858967 -0.02120589 0.042297862 0.053164598 -0.033121113
