final_model.pth (torch, 24304 bytes, 6 tensors)

fc1.weight f4 [64, 2]
0.38600585 -0.0069123833 0.29862717 0.5971479 0.47259855 0.5549031 -0.27704346 -0.42851022
-0.011925226 0.5823489 0.23593472 0.55239284 -0.39173758 -0.20222402 -0.7001374 0.43251786
-0.48464757 0.29670608 0.17598635 -0.31532586 0.20856291 -0.36523077 -0.0874513 0.607593
-0.26162276 -0.5172249 -0.27063814 -0.592595 0.044078376 0.44869763 0.16971302 -0.7104226
0.6565702 -0.6269013 0.10471064 -0.022957444 0.67614263 0.6389157 -0.35738727 -0.35894528
-0.24208197 -0.026520848 -0.6035589 -0.47284734 0.14757848 0.029527657 -0.44887793 -0.4132122
-0.83384067 0.57292795 -0.4022202 0.020122945 0.56325096 -0.038981557 -0.039198708 -0.5568655
-0.007890224 -0.32682645 0.25812134 0.6939805 -0.16787243 -0.19654214 -0.11768192 -0.6488418
-0.010937573 -0.07712521 0.41539675 -0.64631486 0.17117505 0.115351476 -0.27836207 0.105951786
0.51136565 0.4670518 0.51701945 0.31656566 -0.57367456 -0.08638662 -0.26953685 -0.52057314
0.025114775 -0.5691368 -0.22758532 -0.15430439 -0.113262594 -0.052596767 0.5289467 -0.35631585
0.30454746 0.5543881 -0.63906306 -0.5426719 -0.14815083 0.4399985 -0.50288284 -0.6468202
-0.63055503 0.21151423 0.31852067 -0.1042091 -0.47543424 0.7287148 0.2005475 0.5421255
-0.0105891805 -0.1258991 0.17948863 0.2376847 0.5789085 -0.56109345 -0.11887343 -0.28869775
0.20259821 -0.0910849 0.677277 -0.68044645 0.37777257 0.15346996 0.58523566 0.49412856
0.2971365 -0.7015719 0.37131357 -0.36437348 0.47296673 -0.3420908 -0.37745148 -0.53897965
00000000: 8fa2 c53e 4681 e2bb a9e5 983e afde 183f
00000010: 70f8 f13e 210e 0e3f a4d8 8dbe b165 dbbe
00000020: 0662 43bc d114 153f df98 713e 9e69 0d3f
00000030: d491 c8be d013 4fbe 343c 33bf fb72 dd3e
00000040: ba23 f8be dce9 973e c435 343e 6472 a1be
00000050: 8491 553e 87ff babe ab19 b3bd 378b 1b3f
00000060: 6bf3 85be da68 04bf 1591 8abe 4eb4 17bf
00000070: 878b 343d b2bb e53e 40c9 2d3e 41de 35bf
00000080: fc14 283f 9b7c 20bf 8872 d63d 4011 bcbc
00000090: af17 2d3f fb8f 233f 77fb b6be adc7 b7be
000000a0: 56e4 77be 4042 d9bc d682 1abf 0c19 f2be
000000b0: d01e 173e fce3 f13c 54d3 e5be 8d90 d3be
000000c0: 9576 55bf 68ab 123f ceef cdbe e0d8 a43c
000000d0: 3731 103f 20ab 1fbd d38e 20bd bd8e 0ebf
000000e0: 0046 01bc cc55 a7be 7b28 843e b5a8 313f
000000f0: c0e6 2bbe 5842 49be 3803 f1bd 7f1a 26bf
00000100: 8233 33bc d2f3 9dbd e2ae d43e e474 25bf
00000110: 8348 2f3e 653d ec3d 7985 8ebe 40fd d83d
00000120: dce8 023f 6a21 ef3e 635b 043f e514 a23e
00000130: 56dc 12bf 78eb b0bd bc00 8abe 4844 05bf
00000140: 80bd cd3c f3b2 11bf 200c 69be f801 1ebe
00000150: 38f6 e7bd b56f 57bd 0d69 073f 086f b6be
00000160: a5ed 9b3e 61ec 0d3f a399 23bf 8cec 0abf
00000170: dab4 17be 7c47 e13e eebc 00bf 0296 25bf
00000180: 0e6c 21bf 3097 583e 2415 a33e 956b d5bd
00000190: 1e6c f3be 0e8d 3a3f 535c 4d3e bdc8 0a3f
000001a0: 3e7e 2dbc b2eb 00be decb 373e 9e63 733e
000001b0: 5933 143f d2a3 0fbf ea73 f3bd 31d0 93be
000001c0: e875 4f3e b88a babd 0762 2d3f bd31 2ebf
000001d0: 686b c13e 3b27 1d3e 01d2 153f 6bfe fc3e
000001e0: 4622 983e 379a 33bf d01c be3e 298f babe
000001f0: b228 f23e 8626 afbe 5241 c1be 92fa 09bf

fc1.bias f4 [64]
0.51763713 -0.23319294 0.59012264 -0.69887775 0.1443164 0.4903611 -0.5868056 0.19855204
0.13671884 -0.6746205 -0.4452034 0.1691563 -0.35233274 0.34897968 -0.38987952 0.6109476
-0.024653813 -0.6749472 0.52368206 0.56426257 -0.20053452 -0.36370596 0.0075820195 0.42011735
0.50394285 -0.6931603 -0.67278826 0.14475758 -0.37436634 0.2515896 -0.06736565 0.17515123
0.42172146 -0.5937497 -0.088532686 -0.46080178 -0.48038015 -0.1368301 0.12298417 0.10664506
-0.18071389 -0.23164901 0.28478795 -0.51150537 0.5460337 0.6013241 -0.31752288 0.11282265
-0.32238048 0.250099 -0.19299553 -0.5642948 0.498337 0.1187302 0.46362552 0.3504128
-0.13143092 -0.0019919549 0.510458 0.53346956 0.23116969 0.11964249 -0.51302826 -0.44244084
00000000: de83 043f 21ca 6ebe 4712 173f a7e9 32bf
00000010: aec7 133e 9c10 fb3e e438 16bf 3a51 4b3e
00000020: 0600 0c3e eeb3 2cbf b3f1 e3be 4f37 2d3e
00000030: f564 b4be 77ad b23e 4a9e c7be 1067 1c3f
00000040: cbf6 c9bc 57c9 2cbf 0710 063f 8373 103f
00000050: ec58 4dbe ab37 babe 9772 f83b 9f19 d73e
00000060: 6602 013f f472 31bf da3b 2cbf 553b 143e
00000070: f2ac bfbe 5ad0 803e 00f7 89bd d85a 333e
00000080: e0eb d73e fbff 17bf a050 b5bd 36ee ebbe
00000090: 63f4 f5be 311d 0cbe 20df fb3d ba68 da3d
000000a0: 100d 39be 6635 6dbe bacf 913e 04f2 02bf
000000b0: ddc8 0b3f 60f0 193f 5c92 a2be 900f e73d
000000c0: 0e0f a5be fa0c 803e 9fa0 45be a075 10bf
000000d0: 0726 ff3e d228 f33d 5360 ed3e 4e69 b33e
000000e0: d495 06be 758b 02bb 60ad 023f 7691 083f
000000f0: bfb7 6c3e 1f07 f53d d255 03bf 9b87 e2be

fc2.weight f4 [64, 64]
0.05032803 0.081844375 -0.026057303 -0.09089856 -0.0054818243 0.071933046 -0.048542097 -0.11736728
-0.0054293573 0.11302781 0.070065215 -0.11646171 -0.0075674206 -0.09223077 0.11868374 0.007557392
0.038926437 -0.111464426 0.035984784 0.0432031 -0.109469 0.05911213 0.0062251836 0.08187918
0.0012698025 0.060863808 0.019607157 -0.0803393 -0.09159282 -0.06797977 0.119336665 -0.04917568
-0.09966473 -0.120197445 -0.10158825 0.074968025 -0.07150121 -0.095148 0.03150499 -0.047491357
-0.12051922 -0.041228876 0.017321125 -0.0970092 0.043210372 0.086477816 0.017413855 -0.0010555387
0.12322813 -0.06774312 0.036164 -0.09285888 0.088150784 0.015410438 -0.004907176 -0.025458261
-0.012797147 0.0664185 -0.0001655072 -0.1226158 -0.04826291 -0.04922451 -0.020691812 0.04882644
0.0019645244 -0.123837635 -0.01940459 -0.05950807 0.059637412 -0.07748109 -0.024616852 -0.100052714
0.0383849 0.025187239 -0.08700906 -0.06351361 0.070993215 0.05057259 0.008525297 -0.04147978
-0.06714611 -0.08717105 -0.08107382 0.022675976 0.051826462 0.08457637 0.071891725 -0.072997704
-0.08645627 -0.07673325 0.01475811 0.0485079 0.010193825 -0.053442135 -0.12043202 -0.002985984
-0.119575605 0.09176402 0.034270927 -0.06002535 0.029021367 -0.08131459 -0.0558998 -0.07856575
0.015490785 0.10778847 -0.07718481 0.118706435 -0.095672175 0.124284476 -0.09619491 0.10232201
0.12271315 -0.06806935 0.0048312545 -2.9802322e-06 -0.036379546 0.08898789 -0.021546021 -0.079174146
0.054596573 -0.044492662 0.04384117 -0.11273566 0.1201663 -0.021801278 -0.09169383 -0.017343298
0.019539097 -0.07714902 -0.17165267 -0.084159315 0.042922813 0.056049697 0.013724372 -0.01640019
-0.08768443 -0.11178814 -0.005829856 0.0028821826 0.050360978 -0.09221245 0.070691854 -0.1582181
-0.1472051 0.042422354 -0.15681344 -0.123511724 -0.0695142 -0.11383535 0.0062368615 -0.11101295
-0.09512841 -0.12100761 0.08842945 0.008359969 0.06855418 -0.09222907 -0.037978843 -0.020172432
-0.03754893 0.06452018 -0.17237687 -0.10935342 -0.02532357 -0.1498809 -0.018689863 -0.004051124
0.005179718 -0.016603664 -0.102936506 0.01515989 0.07049905 -0.12487041 -0.16803545 0.0075960755
-0.06592621 0.056253895 0.045572713 -0.0950535 -0.032180063 -0.011031907 -0.10993607 -0.11909454
-0.029985115 0.024270022 0.07520619 -0.10413295 0.0639971 -0.12446626 0.01796107 -0.11939196
-0.042032372 -0.05490054 -0.101179 0.04721643 -0.05961111 0.0048028035 -0.10406028 -0.060013153
-0.025136555 -0.093304366 -0.11925876 0.02926333 0.0859462 -0.10191351 -0.04975952 0.025072098
0.06004117 -0.10158631 -0.039103054 0.045417026 0.08606839 0.08263606 -0.0495468 -0.060257528
-0.10813331 0.0071943253 -0.07979323 0.04685964 0.0743043 0.0658416 0.061735883 0.079402626
0.012127581 -0.06481704 -0.0011405894 -0.028626442 -0.04204473 -0.08092906 -0.055743802 0.028736373
-0.03913854 0.07292721 -0.0005835724 0.009727478 -0.14572388 -0.06333365 -0.015145459 -0.0653563
0.08845313 -0.053001057 -0.12957808 -0.13516228 0.014267683 -0.14945772 0.036403872 -0.08687203
-0.057689533 -0.14639229 0.054728895 -0.1102616 -0.17254631 -0.01088256 0.04341203 -0.013895974
00000000: c424 4e3d 069e a73d 2076 d5bc 0629 babd
00000010: e0a0 b3bb a251 933d 14d4 46bd 425e f0bd
00000020: c0e8 b1bb 207b e73d 5a7e 8f3d 7a83 eebd
00000030: 20f8 f7bb 7ce3 bcbd 7610 f33d 00a4 f73b
00000040: 5471 1f3d 7647 e4bd c864 133d bcf5 303d
00000050: 4831 e0bd 901f 723d a0fc cb3b 46b0 a73d
00000060: 806f a63a 544c 793d 309f a03c ee88 a4bd
00000070: 0495 bbbd fa38 8bbd c866 f43d 706c 49bd
00000080: 061d ccbd 142a f6bd 800d d0bd d688 993d
00000090: 3a6f 92bd f4dc c2bd 600b 013d 4c86 42bd
000000a0: c8d2 f6bd 9cdf 28bd 08e5 8d3c c2ac c6bd
000000b0: 5cfd 303d 481b b13d 80a7 8e3c 005a 8aba
000000c0: 085f fc3d e8bc 8abd b420 143d cc2c bebd
000000d0: 6688 b43d 107c 7c3c 60cc a0bb d88d d0bc
000000e0: 20ab 51bc 6c06 883d 008c 2db9 fe1d fbbd
000000f0: 54af 45bd a49f 49bd e081 a9bc 3cfe 473d
00000100: 40bf 003b 969e fdbd 60f6 9ebc bcbe 73bd
00000110: 5c46 743d 68ae 9ebd 48a9 c9bc 70e8 ccbd
00000120: 7c39 1d3d 7855 ce3c ce31 b2bd 6c13 82bd
00000130: e464 913d 3425 4f3d b0ad 0b3c b4e6 29bd
00000140: e683 89bd bc86 b2bd 080a a6bd f8c2 b93c
00000150: fc47 543d 6036 ad3d f83b 933d d27f 95bd
00000160: fc0f b1bd 5226 9dbd 00cc 713c 38b0 463d
00000170: 0004 273c 24e6 5abd 10a5 f6bd 80b0 43bb
00000180: 0ee4 f4bd c6ee bb3d ac5f 0c3d 24dd 75bd
00000190: 38be ed3c 4488 a6bd 30f7 64bd 14e7 a0bd
000001a0: 10cd 7d3c 34c0 dc3d 1213 9ebd 5c1c f33d
000001b0: c6ef c3bd dc88 fe3d d601 c5bd 348e d13d
000001c0: 0851 fb3d f267 8bbd 804f 9e3b 0000 48b6
000001d0: b802 15bd 483f b63d 4881 b0bc 0e26 a2bd
000001e0: a8a0 5f3d f03d 36bd cc92 333d f4e1 e6bd
000001f0: c019 f63d 9898 b2bc fac9 bbbd 8813 8ebc
00000200: 7510 a03c 4e00 9ebd b8c5 2fbe b85b acbd
00000210: d5cf 2f3d 5e94 653d 30dc 603c b159 86bc
00000220: e593 b3bd 2ef1 e4bd 6008 bfbb 00e3 3c3b
00000230: 5047 4e3d e2d9 bcbd e4c6 903d ed03 22be
00000240: efbc 16be 10c3 2d3d b493 20be b7f3 fcbd
00000250: 765d 8ebd 8222 e9bd 965e cc3b c25a e3bd
00000260: afd2 c2bd d6d2 f7bd 801a b53d 40f8 083c
00000270: 2266 8c3d 98e2 bcbd b48f 1bbd a840 a5bc
00000280: e8cc 19bd 2823 843d 9083 30be b0f4 dfbd
00000290: 6073 cfbc 617a 19be 7c1b 99bc 4bbf 84bb
000002a0: a0ba a93b 6804 88bc 60d0 d2bd 3061 783c
000002b0: ce61 903d 0fbc ffbd 7c11 2cbe 80e8 f83b
000002c0: 5204 87bd 7c6a 663d 74aa 3a3d 69ab c2bd
000002d0: 3ecf 03bd 2cbf 34bc 2a26 e1bd d7e7 f3bd
000002e0: 58a3 f5bc edd1 c63c b405 9a3d a843 d5bd
000002f0: e910 833d 2be8 febd 1823 933c c683 f4bd
00000300: 232a 2cbd 63df 60bd f036 cfbd 0466 413d
00000310: c72a 74bd d660 9d3b 8e1d d5bd 5ad0 75bd
00000320: 2deb cdbc 5c16 bfbd f03d f4bd a7b9 ef3c
00000330: 9004 b03d 08b8 d0bd a3d0 4bbd 0064 cd3c
00000340: bbed 753d 7c0c d0bd 862a 20bd 3407 3a3d
00000350: a044 b03d 183d a93d 96f1 4abd 99d0 76bd
00000360: ff74 ddbd 60be eb3b a26a a3bd e5ef 3f3d
00000370: da2c 983d f6d7 863d c4de 7c3d d89d a23d
00000380: c3b2 463c ccbe 84bd d47f 95ba 0082 eabc
00000390: 1837 2cbd 23be a5bd 9d53 64bd 8b68 eb3c
000003a0: bc4f 20bd dc5a 953d e1fa 18ba 0060 1f3c
000003b0: a438 15be 13b5 81bd a924 78bc 86d9 85bd
000003c0: ea26 b53d a317 59bd 1eb0 04be fb67 0abe
000003d0: 00c3 693c 720b 19be 3a1c 153d f6e9 b1bd
000003e0: dc4b 6cbd dce7 15be 682b 603d d5d0 e1bd
000003f0: fbaf 30be c44c 32bc d0d0 313d f0ab 63bc

fc2.bias f4 [64]
-0.043042853 -0.11248408 0.023532158 -0.108542085 0.044170234 -0.08308389 -0.011285265 0.12215768
-0.07254457 -0.044107586 0.07695529 -0.0822148 -0.09877099 0.048711225 -0.055631757 0.044914287
0.099226795 -0.09451996 0.007473887 -0.024183154 -0.11473331 0.06148585 0.007565951 -0.01954779
0.12800604 -0.0046013524 -0.06537722 0.024212988 -0.079646386 -0.06082046 -0.13018401 -0.0030766553
0.021658331 -0.028819615 0.0010085851 0.06977545 -0.11574368 0.0045343344 -0.022660332 0.10107234
-0.06759826 -0.107723236 0.0045628347 0.035786003 -0.09109157 -0.007945469 0.02712211 0.046627417
-0.08024044 0.04719075 0.15188694 0.06496464 -0.041539833 -0.04543242 -0.12375657 -0.09203095
0.033859737 0.054617867 -0.099230796 -0.08686112 0.020399643 0.077423304 -0.03290069 0.07214764
00000000: b44d 30bd 0e5e e6bd 83c6 c03c 504b debd
00000010: d9eb 343d e327 aabd d5e5 38bc ce2d fa3d
00000020: 3f92 94bd 28aa 34bd bc9a 9d3d 3c60 a8bd
00000030: 7248 cabd 6c85 473d 20de 63bd 0bf8 373d
00000040: 6b37 cb3d ae93 c1bd 82e7 f43b c01b c6bc
00000050: 4cf9 eabd 96d8 7b3d cceb f73b b022 a0bc
00000060: 0414 033e f1c6 96bb 7ee4 85bd 515a c63c
00000070: a51d a3bd e01e 79bd f54e 05be b6a1 49bb
00000080: d06c b13c 1d17 ecbc 8032 843a 6ee6 8e3d
00000090: 060b edbd c194 943b 29a2 b9bc 04ff ce3d
000000a0: f570 8abd 009e dcbd d583 953b 5894 123d
000000b0: 388e babd b62d 02bc 302f de3c 64fc 3e3d
000000c0: 1a55 a4bd 164b 413d 4088 1b3e 2e0c 853d
000000d0: ac25 2abd 5817 3abd 1674 fdbd b97a bcbd
000000e0: 82b0 0a3d fcb6 5f3d 8439 cbbd 3ee4 b1bd
000000f0: 271d a73c 1c90 9e3d e0c2 06bd 24c2 933d

fc3.weight f4 [16, 64]
-0.12019703 -0.070753574 0.101734295 -0.10410622 0.06628669 -0.09818784 0.12252346 0.010973958
0.042919323 -0.04518217 -0.04206571 -0.05735591 -0.0066712555 -0.114789665 0.00081107585 0.04840836
-0.054125614 0.07852717 -0.047789514 0.036488086 0.0372376 -0.046771605 0.054696627 0.13193831
0.09807882 0.097844906 -0.011555716 0.10207868 -0.1085828 0.041302368 -0.07415127 -0.05164099
-0.042830512 0.077728294 -0.11647266 -0.04727377 0.11024476 0.004946695 -0.070097305 0.11329962
0.10893124 -0.054784313 0.021422826 -0.002466077 0.08400585 0.017417533 -0.015404925 -0.055421352
-0.060565364 0.0951925 0.008653309 0.059894085 0.097743094 -0.061611667 -0.021463439 0.06625405
0.023398276 0.013499767 0.12412271 -0.0196165 -0.011292257 0.016739827 0.020433594 -0.004086226
-0.053862736 -0.077114925 0.110751756 0.037603904 0.11613373 0.006750955 -0.06262581 -0.07930088
-0.0717384 0.07137799 0.0004981905 0.09834318 0.14690726 -0.11662018 0.039960027 -0.039797686
0.032072477 0.0036782771 -0.14401518 0.006255792 -0.10983299 -0.037619542 -0.08262872 -0.08136134
-0.021068417 -0.0011907521 0.04520555 0.12595703 -0.11771069 -0.012022242 0.02734058 -0.08568314
-0.1110823 -0.07614823 0.017052293 -0.04928953 -0.033313636 0.042961817 0.054353498 -0.001167044
0.025531555 0.09107183 -0.08616518 0.048925277 0.11266118 0.1255339 0.115647525 -0.0014858693
0.03977259 -0.016604029 0.01777794 -0.03835319 0.031513914 -0.042926718 -0.0014368743 0.06867437
0.08438453 -0.032034025 -0.04690166 0.10002588 0.07736991 -0.058231726 0.032768052 -0.121965535
-0.032174483 -0.017959416 0.060167074 -0.0002241944 0.119041465 0.014786096 -0.010713515 0.09559176
0.01762242 -0.03945373 0.039148122 0.11219677 -0.023039244 0.071183875 -0.04805279 0.058772724
0.0003913115 -0.060225576 -0.07848022 -0.12888055 -0.032984063 -0.029677873 -0.10028056 -0.003004399
-0.057098247 0.014761145 0.044645056 0.046750918 -0.009327688 -0.11528082 -0.079666644 -0.034164622
0.010332152 -0.03174843 0.12193169 0.06093204 0.03425219 0.16083273 -0.0011804381 0.081689015
-0.09437873 -0.055459708 -0.0039985687 -0.009220142 0.01564151 0.10378816 0.10720268 -0.046561316
-0.019439688 0.053610504 0.053562973 -0.020208135 -0.09311196 -0.01349321 0.031786695 -0.0917901
0.0036064996 0.077246696 -0.010933682 -0.023770824 0.099938884 -0.07542196 0.12554677 0.089161605
0.10378702 -0.09192237 0.022077873 -0.018477673 0.11952975 -0.08271351 0.10017478 -0.121460855
0.0013430337 -0.082666084 0.08431642 0.010828152 0.0576448 -0.073721185 -0.06744445 0.014196458
0.059432223 0.12190314 -0.012586517 -0.110113144 -0.004757166 -0.061240286 -0.12680006 0.10983715
0.00065116544 -0.06434961 0.12323108 0.09355657 -0.09847074 -0.009592548 -0.03261508 0.028691377
0.078784436 -0.062165387 -0.05402702 0.10286823 -0.016144877 0.06546649 0.029707238 -0.010351852
0.011795414 0.054847464 -0.026292322 -0.04886074 0.07898289 0.12412363 0.06810406 0.0050860792
0.013584123 -0.08600798 -0.018763794 0.11753507 -0.028341323 -0.03977396 0.0622489 0.008980608
-0.040691894 0.071326256 0.049225673 0.105979115 -0.05444202 0.048313126 0.070163086 0.08689547
00000000: dc29 f6bd 40e7 90bd 125a d03d a435 d5bd
00000010: 51c1 873d b516 c9bd 94ed fa3d 1ecc 333c
00000020: 2ccc 2f3d f010 39bd 184d 2cbd 08ee 6abd
00000030: 8c9a dabb d816 ebbd 619e 543a d847 463d
00000040: d2b2 5dbd dad2 a03d f0be 43bd 8874 153d
00000050: 7486 183d 9593 3fbd 9209 603d d61a 073e
00000060: 8cdd c83d e962 c83d 3054 3dbc a10e d13d
00000070: a960 debd ac2c 293d 9fdc 97bd 8185 53bd
00000080: 0c6f 2fbd 0330 9f3d 3889 eebd 24a2 41bd
00000090: 01c8 e13d e317 a23b 2d8f 8fbd a209 e83d
000000a0: 5817 df3d 8465 60bd ec7e af3c e89d 21bb
000000b0: 420b ac3d 37af 8e3c f064 7cbc 8001 63bd
000000c0: 6313 78bd 49f4 c23d 9cc6 0d3c 8053 753d
000000d0: 882d c83d 845c 7cbd 18d4 afbc 34b0 873d
000000e0: bead bf3c 202e 5d3c 0c34 fe3d c8b2 a0bc
000000f0: 2903 39bc f621 893c 5a64 a73c c0e5 85bb
00000100: 2c9f 5cbd 6eee 9dbd d1d1 e23d 8d06 1a3d
00000110: 85d7 ed3d 1d37 dd3b f641 80bd 8068 a2bd
00000120: 95eb 92bd a02e 923d 0099 023a 2668 c93d
00000130: db6e 163e 90d6 eebd 20ad 233d e602 23bd
00000140: 6e5e 033d 400f 713b b778 13be 63fd cc3b
00000150: 1ef0 e0bd f316 1abd 3f39 a9bd c6a0 a6bd
00000160: ac97 acbc 0313 9cba 7429 393d e1fa 003e
00000170: 4d12 f1bd f0f8 44bc 5af9 df3c a47a afbd
00000180: 1e7f e3bd 9af3 9bbd 40b1 8b3c d1e3 49bd
00000190: e173 08bd bbf8 2f3d c6a1 5e3d 80f7 98ba
000001a0: 8d27 d13c de83 ba3d 5f77 b0bd df65 483d
000001b0: e8ba e63d f58b 003e 9cd8 ec3d 80c1 c2ba
000001c0: 95e8 223d 2c05 88bc 0ba3 913c 3c18 1dbd
000001d0: bc14 013d edd3 2fbd 8055 bcba 26a5 8c3d
000001e0: ccd1 ac3d 1c36 03bd f41b 40bd 5eda cc3d
000001f0: 1e74 9e3d 6484 6ebd cb37 063d 11c9 f9bd
00000200: 64c9 03bd a01f 93bc c071 763d ba15 6bb9
00000210: 03cc f33d 6241 723c bd87 2fbc 9dc5 c33d
00000220: e55c 903c 3c9a 21bd c859 203d 6cc7 e53d
00000230: ccbc bcbc dac8 913d 01d3 44bd abbb 703d
00000240: f128 cd39 18af 76bd 3dba a0bd 43f9 03be
00000250: 4c1a 07bd 031f f3bc e55f cdbd 73e5 44bb
00000260: dadf 69bd bbd8 713c bcdd 363d e47d 3f3d
00000270: 29d3 18bc 5a18 ecbd 4428 a3bd 34f0 0bbd
00000280: 3048 293c a40a 02bd 52b7 f93d e093 793d
00000290: 064c 0c3d 56b1 243e eeb8 9aba 924c a73d
000002a0: a349 c1bd b829 63bd 6d06 83bb 1410 17bc
000002b0: a022 803c e38e d43d 148d db3d 14b7 3ebd
000002c0: fb3f 9fbc b096 5b3d d964 5b3d 888b a5bc
000002d0: 7cb1 bebd a012 5dbc c432 023d 73fc bbbd
000002e0: 065b 6c3b 8433 9e3d 3023 33bc 08bb c2bc
000002f0: c2ac cc3d d476 9abd 558f 003e 5c9a b63d
00000300: 4a8e d43d cc41 bcbd a8dc b43c 7d5e 97bc
00000310: 03cc f43d b365 a9bd 6f28 cd3d 78c0 f8bd
00000320: bc08 b03a d64c a9bd 16ae ac3d 9068 313c
00000330: f41c 6c3d 22fb 96bd 5120 8abd 4398 683c
00000340: 346f 733d 5aa8 f93d ae37 4ebc 0083 e1bd
00000350: 00e2 9bbb 18d7 7abd e0d7 01be 4df2 e03d
00000360: f9b2 2a3a bac9 83bd 9460 fc3d 969a bf3d
00000370: 07ab c9bd 102a 1dbc 6497 05bd 2e0a eb3c
00000380: bc59 a13d 22a1 7ebd 704b 5dbd 94ac d23d
00000390: 4342 84bc 4c13 863d 985c f33c d09a 29bc
000003a0: 8d41 413c bca7 603d ff62 d7bc 3322 48bd
000003b0: c8c1 a13d 8834 fe3d 247a 8b3d 20a9 a63b
000003c0: f18f 5e3c f424 b0bd 87b6 99bc 3ab6 f03d
000003d0: 102c e8bc 05ea 22bd b4f8 7e3d 6623 133c
000003e0: 8bac 26bd 8013 923d dca0 493d 940b d93d
000003f0: 98fe 5ebd fce3 453d aab1 8f3d 41f6 b13d

fc3.bias f4 [16]
-0.03769565 0.13676424 -0.031279325 0.06590912 0.12228293 0.1654255 0.17515089 0.013535588
0.008526581 0.17182575 0.04113438 0.08895327 -0.030609118 0.09441608 -0.078530096 0.09634175
00000000: c166 1abd ed0b 0c3e c01e 00bd 5cfb 863d
00000010: 796f fa3d 4d65 293e c15a 333e 5fc4 5d3c
00000020: 13b3 0b3c 17f3 2f3e 867c 283d 222d b63d
00000030: f9bf fabc 385d c13d 63d4 a0bd d34e c53d
