model.pth (torch, 23796 bytes, 6 tensors)

fc1.weight f4 [64, 2]
000000 e1 3b 13 3f 89 bb 59 3e c0 96 67 3e eb 1f 2d bf
       0.5751324 0.21262945 0.226161 -0.6762683
000010 22 6c df 3e da aa d2 3e 50 0f 67 3e 4b 2c 22 3f
       0.43637186 0.41145974 0.22564435 0.63348836
000020 f0 f3 1b bd 50 37 19 bd cb fc 1a be 61 93 88 be
       -0.038074434 -0.037406266 -0.15135495 -0.2667494
000030 34 45 16 3f fd 4f ad 3e c4 5e 03 be 28 9d 52 be
       0.58699346 0.3385009 -0.12829119 -0.20567763
000040 fb 12 db be 02 ee 86 3e 52 57 fd 3e 1e a5 c8 bd
       -0.42787918 0.2635346 0.49480683 -0.097971186
000050 3a 09 86 3e 4c 60 a9 3e e8 11 2e be 1e 65 d2 be
       0.26178914 0.3308128 -0.16999018 -0.4109277
000060 0e e5 c9 3e d1 dd c0 3e 24 27 2e bf 34 fc 0e bf
       0.39432567 0.37669232 -0.68028474 -0.5585358
000070 7c bb a2 be 00 4c bc bd 51 f0 9e 3c 21 ee 07 3f
       -0.31783664 -0.09194183 0.019401701 0.5309773
000080 a7 25 10 3f b6 9b 12 3e 29 ab 6d 3e 7a 9b c6 be
       0.5630745 0.14317212 0.23209824 -0.38790494
000090 58 a8 1a 3f 05 dc 84 bd eb 00 e2 bc bc 46 1a 3f
       0.6041312 -0.06487278 -0.027588328 0.6026418
0000a0 c5 39 cc 3e 02 4a 1d 3f 39 5d ad 3e 4d a5 dc bc
       0.39887825 0.6144105 0.33860186 -0.02693429
0000b0 5c 44 6a 3b 29 02 49 3e 67 01 38 be ce e6 a1 be
       0.0035746312 0.1962973 -0.17969285 -0.31621403
0000c0 65 a1 8b be f4 5e 29 bf b2 15 75 be 34 44 34 be
       -0.27271572 -0.6616051 -0.23934057 -0.17604142
0000d0 50 23 f4 be b1 90 10 bf f5 e5 19 bf f4 0f 38 3f
       -0.4768319 -0.5647078 -0.6011651 0.7189934
0000e0 04 08 fb 3e ab 45 1a 3f 2b e5 2f 3f 30 92 0c 3f
       0.49029553 0.60262555 0.6870906 0.54910564
0000f0 99 44 ad be 85 f4 f1 be 81 c0 33 bf 5e 1a 85 3e
       -0.33841398 -0.47256866 -0.7021561 0.2599668
000100 9c 3c 01 bf f0 2c 97 bd 27 ff 6a 3d 97 c8 0d 3e
       -0.5048311 -0.07381618 0.05737224 0.1384605
000110 db 5a 99 3c a1 72 1c 3f 5e 0e c3 be b4 18 69 3e
       0.018720081 0.6111241 -0.380969 0.2276333
000120 0e ce c6 3d 4d eb 10 3f ba c9 26 3f 43 b5 1f bf
       0.097072706 0.5660904 0.6515156 -0.6238596
000130 05 90 df 3e 90 22 ca 3d 87 88 d8 be d0 f8 d1 3d
       0.43664566 0.098698735 -0.42291662 0.10252535
000140 5f ba 0c bf af 8f bd be 29 8e 0b 3e 20 32 0c 3f
       -0.5497188 -0.37023684 0.13628449 0.54763985
000150 d9 00 6a be 9c 5a 32 3f d0 9d d4 bd b9 56 86 be
       -0.22851886 0.6966951 -0.10381663 -0.2623804
000160 4b fd eb 3e 51 b4 0c 3f 87 4f 80 be 54 7d 6a 3e
       0.46091685 0.5496264 -0.25060675 0.22899371
000170 c2 24 9a be 80 f5 ed 3d d4 02 bd 3e 09 1a 86 bb
       -0.3010617 0.11619091 0.3691622 -0.004092459
000180 dc 03 e7 be 56 f8 2f bf ae 2c 29 3f e4 7f 32 3f
       -0.45120132 -0.68738306 0.660838 0.69726396
000190 03 5d ca 3d 7e cc 1b 3e e0 9b a5 bc be 52 f5 3e
       0.09881022 0.15214726 -0.020215929 0.4791469
0001a0 80 6a 12 3e 37 ce 3a be a0 88 20 3f 4f 44 f8 be
       0.14298439 -0.18242727 0.62708473 -0.48489615
0001b0 ae 5e a6 3e 81 61 fb be a0 96 da be b7 58 34 3f
       0.3249411 -0.49097827 -0.42693043 0.7044787
0001c0 54 56 57 3e f8 ee 25 3f a9 72 a2 be c5 da 17 bf
       0.21029025 0.6481776 -0.31728104 -0.5931819
0001d0 80 95 41 3d 84 91 50 be 16 eb 20 3e 74 1b d2 3e
       0.047261715 -0.2036801 0.15714678 0.4103657
0001e0 88 e4 6e bd 24 6d a5 be cb 1a d2 3e 0f 4c 0c bf
       -0.058323413 -0.3230983 0.41036066 -0.54803556
0001f0 d4 fb f8 be 90 c1 9b 3d 27 c8 34 3f 8c 8d 1c bf
       -0.4862963 0.076052785 0.7061791 -0.61153483

fc1.bias f4 [64]
000000 82 bb af 3e e2 69 05 bf cc 11 2b bf d3 87 ca be
       0.34322745 -0.5211469 -0.6682403 -0.3955675
000010 c0 5c 39 bc 26 2e f8 3e 77 b1 73 be 60 e0 df be
       -0.011313617 0.48472708 -0.23798166 -0.43725872
000020 69 57 68 3e 86 71 18 3e 20 59 a1 3e 33 27 19 bf
       0.22689594 0.14887056 0.3151331 -0.5982544
000030 eb 9e 28 be 3c 30 4c 3e 2e 5f 12 bf 5a f1 de be
       -0.16466872 0.19940275 -0.5717648 -0.43543512
000040 18 57 4e 3e 20 0b 16 3e 81 a1 1a 3f 1e c5 26 3f
       0.20150411 0.14652681 0.60402685 0.65144527
000050 0d 6a b2 3d ca da 8a 3e 19 05 68 3e ac a0 d1 3e
       0.08711634 0.27120048 0.22658195 0.40942895
000060 01 ce 97 be 59 e0 13 bf 1a 3d ef be b9 62 b3 bd
       -0.29649356 -0.577642 -0.46726304 -0.08759064
000070 f0 19 1c 3f 7d 97 3b 3e 7d 28 cf be 00 ab 09 3f
       0.6097708 0.18319507 -0.40460578 0.5377655
000080 97 44 13 bf 77 76 85 3e b7 da 85 39 5e 8c 2d bf
       -0.57526535 0.26066944 0.00025530692 -0.6779231
000090 16 84 b2 be b8 db 34 3f 3d 60 3e bb 41 9c 42 3e
       -0.348664 0.70647764 -0.0029049062 0.19004919
0000a0 9b e3 e6 3e c5 aa e6 be 84 96 c2 3d dc c9 ad 3e
       0.45095524 -0.45052162 0.09501365 0.3394307
0000b0 2d 07 a2 be 2f 5e 10 bf cb c0 22 bf 3a 29 1d 3f
       -0.316461 -0.5639371 -0.6357543 0.6139103
0000c0 f8 e7 bd 3d bc 77 27 bf 49 f4 a8 3e c0 73 0a bf
       0.0927276 -0.65417075 0.32998875 -0.5408287
0000d0 49 27 ba 3e 5c 9a e6 3e c5 02 09 3f b8 3e bd 3d
       0.36358097 0.45039642 0.5351985 0.09240478
0000e0 92 12 28 bf e4 af 06 bf 40 53 8f bd a6 d3 25 3e
       -0.65653336 -0.5261214 -0.069983006 0.16194019
0000f0 21 8c 92 3e 55 c7 68 3e 44 3c e6 be fa 4c 2a bf
       0.28622535 0.22732289 -0.44967854 -0.66523707

fc2.weight f4 [64, 64]
000000 7b f6 02 3e c0 8f 49 3b 66 a0 de 3d 50 44 f1 bd
       0.12789337 0.0030755848 0.10870437 -0.11780608
000010 88 a2 d5 3d 19 fb c3 bd f7 2b ba 3d d0 5c 9f 3c
       0.10431391 -0.095693775 0.09090417 0.019453436
000020 c6 2e 1d 3d 26 95 24 3d f9 d2 b6 3d 48 c9 b0 3c
       0.038374685 0.0401813 0.089269586 0.021580353
000030 d9 d2 51 3d c8 16 56 bd 06 81 c3 3d 43 a4 cd bd
       0.05122647 -0.05226782 0.09546094 -0.10041096
000040 37 87 1a 3d 0a 90 fa bd 03 26 97 3c 27 a2 ae bd
       0.037726607 -0.122345045 0.018450743 -0.08527022
000050 99 93 c9 bc 0d 78 8d 3c 33 1d 0d bb 87 24 09 3d
       -0.024606513 0.017269159 -0.0021532297 0.0334821
000060 80 f0 65 3c 00 3e 2a bd fc d0 08 bd e3 71 ce 3c
       0.01403439 -0.041563034 -0.033402428 0.02520079
000070 57 16 a9 bc 86 30 88 3c 62 fa bc 3d 81 a9 80 3c
       -0.020640535 0.0166247 0.09227444 0.015705826
000080 60 89 e4 bc 3b 2f 84 bd a7 ab 3a 3d b0 b4 da bc
       -0.027897537 -0.06454321 0.045573857 -0.026697487
000090 f8 93 a3 3d dc ec a0 3c 68 bc 96 bd 28 ca be bd
       0.07987207 0.019644193 -0.073601544 -0.09315902
0000a0 b7 02 03 3e 2e e1 a3 3d fe 39 07 bd 9e 21 24 bd
       0.12794004 0.08001934 -0.03301429 -0.040071122
0000b0 27 fc e6 bd 00 16 61 bc c0 c8 47 3d 04 02 b2 bc
       -0.11278563 -0.013738155 0.048775434 -0.021729477
0000c0 ec c0 0e 3d e8 b6 88 bd d3 ac 75 3d e0 d4 df 3b
       0.034851953 -0.066755116 0.05997927 0.0068307966
0000d0 bb 2c ac 3d 95 0d 98 3d 68 d1 90 bc b2 3d 39 bd
       0.08406969 0.074244656 -0.017677978 -0.045224853
0000e0 d4 4c 40 bc 80 1b 26 bd 40 e7 fd 3c 89 bb 5e 3d
       -0.011737067 -0.04055357 0.030994058 0.054378066
0000f0 9f 01 ab bd 79 cc 08 3d 00 3c a8 bb c0 f2 5c 3b
       -0.083499186 0.033398125 -0.0051341057 0.0033714026
000100 63 ab f2 bc c8 4a a7 bd 74 d0 97 bd b3 fa 08 3e
       -0.02962274 -0.0816856 -0.07412806 0.13376884
000110 38 68 c6 bd fb f6 91 3d 96 c6 98 3d 40 8e ef 3c
       -0.09687847 0.07127186 0.07459752 0.029242635
000120 0d 0f 36 ba 2b 97 d8 bc 6a f4 f1 3d 24 dd 76 3d
       -0.0006944992 -0.02643927 0.118141964 0.06026949
000130 e2 bd 65 3d ba b7 c2 3d c8 cc e6 bc b8 32 74 ba
       0.05608929 0.09507699 -0.02817382 -0.0009315419
000140 8f 93 0d 3e 65 2d aa ba 82 c1 9d 3d 67 7b c9 3d
       0.1382582 -0.0012983499 0.07702924 0.0983799
000150 6c 8e 76 bc e0 ea aa bd 87 18 ab bd bc 08 f5 3d
       -0.015048604 -0.0834558 -0.083542876 0.119645566
000160 40 99 4a bb 78 04 b9 bc 34 bd f9 bd 23 89 d4 bb
       -0.0030914098 -0.022585139 -0.12194291 -0.0064860745
000170 45 e8 61 3d ed 34 0c bd 7a c6 f1 3d 56 8e 1f 3e
       0.05515315 -0.03423016 0.118054345 0.1558164
000180 6c c2 fb bd 39 74 81 bd 9f 9b eb 3d f0 bf 3d bc
       -0.122929424 -0.06320996 0.11504292 -0.011581406
000190 51 48 d9 bd 56 4d d8 3d bb 79 f5 3d dd 14 26 3b
       -0.106094964 0.10561626 0.11986109 0.0025342025
0001a0 a1 4c 28 bd ce 8e 3f bd e0 b3 86 3d fd e8 53 3e
       -0.041088704 -0.04676705 0.06577277 0.20694347
0001b0 d8 20 4b 3d 30 50 aa 3d 36 79 a2 bd f2 12 a8 3d
       0.04959187 0.08316076 -0.079332754 0.082067385
0001c0 40 73 85 bb bd b5 49 bc 0f 2e 04 3e ee c0 e0 bd
       -0.0040725768 -0.012311396 0.12908195 -0.109742984
0001d0 1c 0b d2 3d 4a 5f e7 3d 61 c4 ea 3d 93 10 a8 bc
       0.10256025 0.11297472 0.114632376 -0.020515716
0001e0 29 0f 4c 3d 94 20 26 3d 44 0b 57 bd 84 2d f0 3d
       0.049819145 0.040558413 -0.052500978 0.117274314
0001f0 88 b4 4e 3d fe aa 42 bd da 6f dc bd 0c 1e 8b 3d
       0.050465137 -0.047526352 -0.107635215 0.0679284
000200 ce 03 c6 3d 1c 3a c7 bd 48 f5 ec bd 77 21 a7 bc
       0.096686944 -0.0972788 -0.11570221 -0.0204017
000210 d8 19 b8 bc 88 9a 27 3d c0 72 cd 3c a2 ad 90 3d
       -0.02247326 0.040918857 0.025079131 0.07064368
000220 5c 3b 00 bd 06 b9 b4 bd 50 42 75 3d 7a 1a bb 3d
       -0.03130661 -0.08824353 0.059877694 0.091359094
000230 4e 00 9a 3c 50 9f 03 3c f6 46 97 bd 48 42 de bc
       0.018798973 0.0080335885 -0.073865816 -0.027131215
000240 31 d5 b3 3c ff 57 ed 3d c4 66 64 bd 42 9c 78 ba
       0.021952244 0.115890495 -0.055762067 -0.00094837334
000250 c6 fe f0 3d 9e 0f 7a 3d f1 3e a6 bc 8a 31 91 bd
       0.11767344 0.06105005 -0.020293685 -0.07089527
000260 24 bf c8 3d ac 26 a4 bd 00 d0 35 3c d6 c0 54 3c
       0.09802082 -0.080151886 0.011096954 0.012985429
000270 c3 34 a9 bd 65 a2 77 3c 50 62 da bd 7f 8b c5 3d
       -0.082620166 0.0151144015 -0.10663283 0.096457474
000280 62 54 f7 3d 9d 61 5d bd a0 e7 84 bd 9e f5 f7 3d
       0.120766416 -0.05404817 -0.064894915 0.12107395
000290 f7 bd 95 bd de e1 5e 3d b1 c4 02 bd 8c bf 79 bd
       -0.073116235 0.054414622 -0.03192586 -0.06097369
0002a0 f1 00 dc bd 0e fa 8c 3d ea 5d 82 3c 05 ff 61 3d
       -0.10742367 0.06883632 0.015913922 0.055174846
0002b0 06 f8 8f bd 2e 8a 87 bd 56 2b b7 bd 91 fd bd bc
       -0.070297286 -0.066181526 -0.089438125 -0.023192199
0002c0 b4 bb ce 3d dd 3c 72 bd 97 90 25 bd 38 f8 63 bd
       0.10094395 -0.059140075 -0.040421095 -0.05565664
0002d0 36 5b 8b bd 3e cb c7 3d 53 01 16 3c 80 b5 e2 3d
       -0.068045065 0.09755562 0.009155589 0.11069775
0002e0 04 82 ef 3d c8 fc a2 3c cc 1f 5a 3d dc 10 a0 3d
       0.116947204 0.019895926 0.05325298 0.07815716
0002f0 ee ef a8 bd d3 e7 18 bd 00 c8 ac bb 70 78 6f bc
       -0.08248888 -0.03733046 -0.0052728653 -0.014616117
000300 55 86 b9 bc b8 61 00 3d 18 8f f8 bc 3c d6 00 be
       -0.022647062 0.03134319 -0.03034167 -0.12581724
000310 94 24 84 3d 78 31 6c bd 6d 0d a4 bd 88 86 50 bd
       0.06452289 -0.057664365 -0.08010373 -0.05090955
000320 ea 2e 86 3d 55 8b 92 3d 91 52 12 3d 64 1e c5 3d
       0.06551917 0.07155482 0.035723273 0.09624937
000330 bf 85 06 bd 1c ce a9 bd 60 b0 bf bb 4f e7 22 3d
       -0.032842394 -0.08291265 -0.005849883 0.039771374
000340 9d eb af 3a 68 ba cf 3c e0 fa b6 bc a1 88 ec bd
       0.0013421659 0.02535744 -0.022336423 -0.115494974
000350 1c eb 82 bd 23 ce e4 bd fa b3 ab 3d 77 4b ca 3d
       -0.063925 -0.1117213 0.08383937 0.09877675
000360 c0 05 6e bd 5c 85 97 bd 5a 80 c1 bd 2d 47 39 bd
       -0.058110952 -0.07398483 -0.09448309 -0.045233894
000370 5d 5b f0 3d 30 50 9e bb 22 61 ae bd 11 24 9a bd
       0.11736176 -0.0048313364 -0.0851462 -0.0752641
000380 f4 25 2c 3d c7 08 ea bd 8e 22 bb 3d 48 e1 49 3d
       0.042028382 -0.114274554 0.0913745 0.04928711
000390 82 b1 a8 3c 95 00 a7 3d 5f 87 89 3d cd 6c bf bc
       0.020592455 0.08154408 0.06715273 -0.02336731
0003a0 c2 2a c8 3d d2 26 b6 bc 79 94 00 be c3 1b a0 3d
       0.097737804 -0.022235308 -0.12556638 0.07817795
0003b0 e6 26 86 3d 4e 94 e8 bd 6e a4 9f bd c7 f3 ec bc
       0.06550388 -0.11356412 -0.07795034 -0.028924836
0003c0 bc 33 44 3d 91 64 a7 3c 85 fd af 3d 6e 5e 8a bd
       0.0479009 0.020433696 0.08593277 -0.06756292
0003d0 67 ab b4 bc df f4 54 3d ac ae df 3d 12 aa ee 3d
       -0.022054387 0.05199134 0.10921988 0.11653532
0003e0 65 6d 2d 3d 20 c2 58 3c 90 65 4b bd e4 76 f8 bd
       0.042340655 0.013229877 -0.049657404 -0.121320516
0003f0 54 32 bd 3d 2d 58 6b 3d 9e 1e db bd d4 09 3a 3d
       0.09238115 0.057457138 -0.10699199 0.04541953

fc2.bias f4 [64]
000000 30 70 93 3d 73 17 0b 3e e9 67 c5 3d 18 5d 01 3e
       0.071991324 0.13583164 0.0963896 0.12633169
000010 8e 8f 89 bc 57 1a 91 3d 3b 4c b6 3c 1e c0 10 3c
       -0.016792085 0.07085102 0.022253146 0.008834867
000020 15 a8 9b 3d 00 71 e1 3a 24 0c 60 bd 66 e0 81 3d
       0.076004185 0.0017199814 -0.05469908 0.06341629
000030 e4 f8 5f 3c 2c 76 3b bd 3c 6f 70 bd c0 a2 e4 3d
       0.01367018 -0.045766994 -0.05869983 0.111638546
000040 26 66 ab bd 0e c3 f6 3c c2 f0 f4 bd 9e 02 bc bc
       -0.08369093 0.030122306 -0.119599834 -0.022950467
000050 ee f8 f3 3d 90 10 ff bd fe 91 68 bb ad e7 0c bb
       0.11912714 -0.12454331 -0.0035487409 -0.0021500394
000060 d4 ab 03 bd dc e7 48 bd c1 a7 50 bc 38 03 76 bd
       -0.03214629 -0.049049243 -0.012735308 -0.060061663
000070 bd cb ec 3d 67 32 a9 3d c7 46 db ba 3b d1 07 bd
       0.115622975 0.082615666 -0.0016729467 -0.033158522
000080 bd f6 cc bb 90 46 cc 3c f0 f0 71 3c 00 03 13 bc
       -0.0062549994 0.02493599 0.014766917 -0.008972883
000090 b6 13 fc 3c bf 39 f7 3d f6 ff a6 3d ca 91 9b bc
       0.030771118 0.12071561 0.081542894 -0.018990416
0000a0 c7 96 86 3d 20 45 18 bc 8a ee f0 3d 54 f8 0e bd
       0.06571727 -0.009293824 0.11764248 -0.034904793
0000b0 32 93 29 bc 24 55 81 3c c6 fa 80 bd 48 8f 35 bd
       -0.0103500355 0.015787669 -0.06297831 -0.044326097
0000c0 1c 1e 47 bd 28 4e 06 be 26 38 76 3d 1b dc 9b bd
       -0.0486127 -0.13115752 0.06011214 -0.07610341
0000d0 e8 72 8d 3d d0 74 94 3d 72 ac 37 3d 27 52 8c bd
       0.06906682 0.07248843 0.04484219 -0.06851607
0000e0 99 cf d5 bd 71 d2 2d 3d b7 ab d1 bd 29 42 cc bd
       -0.10439987 0.04243702 -0.1023783 -0.099735565
0000f0 ae 20 0f 3e 6f 12 ea 3d 40 78 0c bd 2c 6b d0 bd
       0.1397731 0.11429297 -0.034294367 -0.101766914

fc3.weight f4 [16, 64]
000000 ea 42 ce 3d 97 d5 a8 bd 4a 2e f0 bc f6 fa b3 bc
       0.100713566 -0.08243864 -0.029318947 -0.021970253
000010 c5 8b e3 3d fe 31 5d bc 9f 90 44 3d 0e ec d6 bd
       0.11110643 -0.013500689 0.047989484 -0.104942426
000020 7a 97 85 3d 5c e3 c7 3d 32 50 b2 bd 88 de e3 bd
       0.065230325 0.09760162 -0.08706702 -0.11126429
000030 9e cd 42 3c 08 1b 5c bd 56 c9 6a bc 72 4a a6 3d
       0.011889843 -0.053736717 -0.014330229 0.08119668
000040 0c 42 b8 3d 29 57 26 bd 30 09 b3 bc 2b 17 11 3d
       0.089969724 -0.040610466 -0.021854967 0.035422485
000050 1a f2 b4 bd ea f3 cb 3d f4 32 d8 3b c6 73 e7 bd
       -0.0883524 0.09958632 0.006597871 -0.11301379
000060 fc f1 18 3d a0 78 04 3d 42 a9 e7 bd e8 bc bc 3d
       0.03734015 0.0323416 -0.1131158 0.092157185
000070 2b 74 40 3d cb eb 38 bd 5a a0 1e bd 4a f9 d9 3c
       0.046985786 -0.045146745 -0.038727142 0.026608128
000080 da aa dc bd e8 02 ae bc b0 3d 02 3c 2c 06 2b 3d
       -0.10774775 -0.02124162 0.007949278 0.041753933
000090 56 d9 b0 bd e5 ee dc bc 58 d4 c0 3c 19 5a f6 3d
       -0.086352035 -0.026969383 0.023538753 0.120289035
0000a0 59 e5 63 bd b4 fb 18 bd 60 62 7a bc 00 77 72 bb
       -0.055638645 -0.037349418 -0.0152822435 -0.00369972
0000b0 40 fe 27 3d 6c 9f 10 be 10 41 6b 3c 3c 1a 7c 3c
       0.041013956 -0.14123315 0.014358774 0.015387114
0000c0 40 ac e6 3b 3f 29 5e 3d 5e ec 57 bb bf 5f d4 bd
       0.007039577 0.054238554 -0.0032947282 -0.103698246
0000d0 3d 86 81 bc c6 a0 d4 bd 97 fe 6f bd 58 f6 74 bd
       -0.01581108 -0.103822276 -0.058592405 -0.059805244
0000e0 d8 a5 c3 bd 7a e4 4e bd 31 a4 c2 bd e1 51 86 3d
       -0.095531166 -0.05051086 -0.09503973 0.06558586
0000f0 a2 64 d2 3d 76 69 7b bd 89 3f e3 bd 41 48 cb bd
       0.102731004 -0.061379872 -0.11096103 -0.09925891
000100 36 55 ed bb cc ad cc bd 35 c7 66 bd af a6 cf 3d
       -0.007242824 -0.099940866 -0.056342322 0.10139214
000110 cc 4d 44 3d 67 f4 93 3d 7a f8 e1 bd 4a 5f 6a bd
       0.047925755 0.072243504 -0.11033721 -0.05721978
000120 78 c1 c7 bd a8 b8 2c bd 4c 39 2e bd 96 ea b7 bd
       -0.09753698 -0.04216829 -0.04253511 -0.089802906
000130 79 9c 24 3a b0 be 14 bc 09 33 8e 3d b2 9d 86 bd
       0.000627942 -0.009078667 0.06943328 -0.06573047
000140 09 ed cf 3d 6c e1 80 3d 40 12 f3 bd 1e 85 4d 3d
       0.10152633 0.06292996 -0.11868715 0.05017578
000150 1f 19 00 3e 00 8a 9a bb 2d 19 ea bd a7 3b d2 bd
       0.12509583 -0.004716158 -0.11430583 -0.10265284
000160 6e f0 8f 3d ac 11 a8 bd 07 63 10 3d 2c 65 ee bd
       0.0702828 -0.08206496 0.03525069 -0.11640391
000170 20 5d 69 3d 26 44 16 bd bf bf a9 bd 12 cb 9e bd
       0.056973577 -0.036686085 -0.08288526 -0.07753576
000180 32 4d d0 bd 44 14 d6 bd 20 62 6f bd 4c 49 88 bd
       -0.10170974 -0.10453084 -0.05844319 -0.06654605
000190 e0 8e a3 3d 7e 47 80 bd 40 2f 3b bd 72 25 74 bc
       0.079862356 -0.06263636 -0.045699358 -0.014901506
0001a0 e5 f4 4b 3d 98 fc c7 bd 52 7e b9 3d b8 36 59 3d
       0.049794096 -0.09764975 0.09057297 0.0530307
0001b0 f3 91 da 3d 0e a2 ec bd fa 37 9d bd 6b 02 98 3d
       0.10672369 -0.11554347 -0.07676692 0.07422336
0001c0 80 1e 12 3b 19 6a 8c bd c5 da a2 3d 66 60 27 3d
       0.0022296011 -0.06856174 0.07951883 0.040863417
0001d0 87 3e 18 bc 2a bc a0 bd 55 d8 c6 bd 74 0f a2 bd
       -0.009292251 -0.078483894 -0.09709231 -0.07913104
0001e0 a4 84 c0 3c d1 5e f6 3c 43 68 4c 3c 9d 5a e0 3d
       0.023500748 0.030074509 0.01247603 0.10954783
0001f0 ff c9 4c 3b f1 6b 83 bd 55 8d d0 bd ba de 3a 3d
       0.0031248329 -0.064170726 -0.10183207 0.045622565
000200 ba 2f 5e bd fb 0d 41 39 1b 53 a2 3d 66 04 90 3c
       -0.054244734 0.00018411122 0.07926007 0.017580222
000210 e5 d3 0c 3d 86 7b 51 bd ee 18 41 3d b5 05 86 bd
       0.034381766 -0.05114319 0.047142915 -0.06544057
000220 e6 99 1d 3b aa 5f 9c 3d 24 a5 73 3d 2f 50 ef bc
       0.002404803 0.07635434 0.059483662 -0.02921304
000230 a6 b6 a5 bc 3a cc f0 3d 71 94 a1 bd 65 3c c0 bd
       -0.020228695 0.11757703 -0.07889641 -0.09386519
000240 0e 77 86 3c 02 e1 af 3c 70 b7 e8 3c d2 8b 5e 3d
       0.016414192 0.021469597 0.028407782 0.05433256
000250 d3 7d ab bd 14 11 7e 3d 97 29 81 bd a6 e5 32 3c
       -0.083736084 0.062028006 -0.06306761 0.01091901
000260 fc 69 4e 3d 98 25 91 3c 62 0c 61 bd e4 d6 f7 bd
       0.050394043 0.017718121 -0.05494345 -0.12101534
000270 55 39 18 3d 33 53 ac 3d 59 54 ac 3d b6 54 cf bd
       0.03716405 0.084143065 0.084145255 -0.10123579
000280 15 cb a1 bd 86 87 d4 3d 14 07 25 bd f8 0a b0 3d
       -0.07900063 0.103774115 -0.040289953 0.08595842
000290 8a 49 2d bd 1d 9f fd bd 40 b3 ff bd 98 38 0e 3d
       -0.04230646 -0.12383864 -0.12485361 0.03472194
0002a0 af e3 42 3d c0 ad 50 bd ae 67 a1 bd ec 05 59 3d
       0.047580417 -0.05094695 -0.078811035 0.052984163
0002b0 c4 04 f9 3c c4 40 cd 3d 08 b2 de 3d 56 5c 98 bb
       0.03039778 0.10022119 0.108738005 -0.004649679
0002c0 40 22 a5 bd ae c3 00 3c 75 14 6f bc 58 e7 3a 3d
       -0.08063173 0.007859154 -0.01459228 0.045630783
0002d0 7c 5e d3 3c 78 1b fe bd ed 7b bc bc e9 29 52 3d
       0.02580189 -0.12407583 -0.023008311 0.0513095
0002e0 fa 22 72 3d ba 1b 10 bd 7a b8 33 bd 5e f2 d1 3d
       0.059115387 -0.035182692 -0.043877102 0.10251306
0002f0 4e 81 77 3d bb 52 b9 bd 4b 4a 07 3e f7 ba 96 bd
       0.06042605 -0.09048983 0.13211934 -0.073598795
000300 85 cd 51 3d 2c fb 92 3c 3f ac f5 bd e7 df ce 3d
       0.05122139 0.017942034 -0.11995744 0.101013
000310 ea 7f cc bd 5e 9f 00 bd 9e 31 db bd 49 38 05 3e
       -0.09985335 -0.031401984 -0.10702823 0.13009752
000320 3e 42 e6 bd b0 a9 e1 bd 80 47 75 3d e0 2f 9d bd
       -0.112431034 -0.110186934 0.05988264 -0.07675147
000330 43 a2 74 3d 88 73 ee 3d 77 5a 84 bd 5f 0e 60 3d
       0.059725057 0.116431296 -0.06462567 0.054701205
000340 ba f5 d7 3c 0f 34 86 bd a0 47 87 3c 53 5a 3a bd
       0.026362289 -0.06552898 0.016513646 -0.045496296
000350 1a 6d d8 bd d0 53 7a bd 96 97 30 bd 8c 32 11 bd
       -0.105676845 -0.061115086 -0.043113314 -0.035448596
000360 00 94 ed 3b 00 56 ab bc 90 eb a1 bb a0 3b 6d 3d
       0.007250309 -0.020915031 -0.0049414113 0.05791819
000370 3a bd 9c bb f5 8d 2b bd 3c df e8 bd 65 08 99 3d
       -0.0047832998 -0.041883428 -0.113707036 0.07472304
000380 60 21 7e bd 38 20 9f 3c c0 f7 48 bd a0 45 c2 3c
       -0.062043548 0.019424543 -0.049064398 0.02371484
000390 84 17 c2 3d 61 22 d9 3d 40 b5 fa bb cb 41 42 3d
       0.094771415 0.106022604 -0.007651001 0.047426026
0003a0 34 64 b7 3d b2 8f b3 bd 94 5e 57 bd 90 4f dc 3c
       0.08954659 -0.08767642 -0.05258043 0.026893407
0003b0 8b c1 9c 3d 36 00 e0 3d 6a b7 dd bd 03 16 8c 3b
       0.07654103 0.1093754 -0.10825999 0.004275085
0003c0 7e d8 87 bd 53 3b a9 3c b4 97 37 bd 4d eb 9d bd
       -0.066330895 0.02065817 -0.04482241 -0.07710896
0003d0 25 6f 97 3d 38 87 f5 3d 38 bc ba bc 11 f7 ba bc
       0.07394246 0.119886816 -0.022794828 -0.022822889
0003e0 2b 3d ec bc 7a 98 09 3e 26 ab 0f bd dd 84 e5 bc
       -0.02883776 0.13437071 -0.03507533 -0.028017456
0003f0 8d 86 74 3d ba 96 69 3c 8d d8 58 3d b0 f6 54 3d
       0.05969863 0.014257127 0.052940894 0.051993072

fc3.bias f4 [16]
000000 3f 11 eb 3d 75 3d 71 bb 53 c4 ae bd 24 9a e7 bd
       0.11477899 -0.0036810313 -0.085335396 -0.11308697
000010 58 42 78 bd cc 73 9e bc 27 f5 9c bd ac 9f 17 3d
       -0.060610145 -0.019342326 -0.076639466 0.03701751
000020 69 f5 df bd 42 6a 9e bd df 31 71 bc ae 25 1d bd
       -0.1093548 -0.07735111 -0.014721363 -0.038366012
000030 4e ab 55 3d f9 0a be bd 4b 70 b3 3d 0c 77 9a bd
       0.052165322 -0.092794366 0.087616526 -0.07542238
