best_models/best_model_old.pth (torch, 24294 bytes, 6 tensors)

fc1.weight f4 [64, 2]
0	0xbecdd18f	-0.40198943
1	0xbd3da98a	-0.046304263
2	0xbd4f8f35	-0.050673682
3	0xbf1429bd	-0.5787619
4	0xbe2987b8	-0.16555679
5	0xbf1fa435	-0.62359935
6	0x3e663b46	0.22483549
7	0xbf09c4d6	-0.5381597
8	0xbecaf780	-0.39641953
9	0x3d6435b0	0.055715263
10	0x3f19410d	0.59864885
11	0x3e312c00	0.17301941
12	0x3db7a07b	0.08966156
13	0x3ef79d07	0.4836199
14	0x3ef216d6	0.47283047
15	0xbcf93e00	-0.030425072
16	0xbc853526	-0.016260695
17	0xbed2a4f6	-0.4114148
18	0xbf1fe9ba	-0.62466013
19	0x3dc58708	0.09644896
20	0x3dade048	0.08490044
21	0xbf34ad76	-0.7057718
22	0xbe38bc18	-0.18040502
23	0x3ebfc1c6	0.37452525
24	0x3f09c251	0.5381213
25	0x3e306a04	0.17227942
26	0x3e90df10	0.28295183
27	0x3d2bfa70	0.041986883
28	0x3f04ae13	0.51828116
29	0x3ec459f3	0.38349876
30	0x3dd1ccc0	0.10244131
31	0xbed76e02	-0.42076117
32	0xbc6aca5a	-0.014330471
33	0xbf26ec18	-0.65204
34	0x3ec39da9	0.38206223
35	0x3d9af178	0.07565588
36	0x3e6e0dcd	0.23247452
37	0x3d6df823	0.05809797
38	0xbed400aa	-0.41406757
39	0xbe77a288	-0.24183095
40	0x3eebb962	0.46039873
41	0xbf32e644	-0.6988261
42	0x3e0cc1a8	0.13745749
43	0xbf2b0446	-0.66803396
44	0x3ebd55cd	0.36979523
45	0x3d2d240f	0.042270716
46	0x3f085a36	0.5326265
47	0x3eead624	0.458665
48	0x3e550a86	0.20804796
49	0x3f12410c	0.57130504
50	0xbea64722	-0.32476145
51	0xbed032fe	-0.40663904
52	0xbefc4139	-0.4926851
53	0xbecff50d	-0.40616646
54	0x3e7dd884	0.24789625
55	0x3ea2514b	0.31702647
56	0xbe8243e5	-0.25442424
57	0xbe84654e	-0.2585854
58	0xbebf5824	-0.37371933
59	0x3eed62cf	0.46364447
60	0xbd3fe691	-0.046850745
61	0xbd707b4c	-0.058711335
62	0xbf104b8a	-0.56365263
63	0xbf297c0e	-0.6620492
64	0x3ef4e3b7	0.47829983
65	0xbee20d5e	-0.44150823
66	0xbececaf6	-0.40389222
67	0x3e95e1ca	0.29273826
68	0x3f013884	0.5047686
69	0x3e8433d6	0.25820798
70	0x3e080234	0.1328209
71	0x3f065395	0.52471286
72	0x3eb585b1	0.3545356
73	0x3f13ef19	0.5778671
74	0xbf09067d	-0.53525525
75	0xbe1024d0	-0.14076543
76	0xbf10ad89	-0.56514794
77	0x3f1bc0ad	0.60840875
78	0x3e34bfb7	0.17651258
79	0xbe8c7f22	-0.27440745
80	0x3dba7228	0.09103805
81	0xbf02650a	-0.50935423
82	0xbf6dce21	-0.9289265
83	0x3e9e9458	0.30972552
84	0xbf17e714	-0.5933697
85	0x3eade926	0.3396694
86	0xbf56f91c	-0.8397386
87	0x3f551d1d	0.8324755
88	0xbe7d27bc	-0.24722189
89	0xbe82de71	-0.25560334
90	0x3ea10c5a	0.31454736
91	0xbe850c8a	-0.2598613
92	0x3e89ba06	0.26899737
93	0x3d8423ec	0.06452164
94	0x3e83653d	0.25663176
95	0x3f14438a	0.57915556
96	0x3e8afccc	0.27145994
97	0x3de8a4d0	0.113595605
98	0x3c36e9c0	0.011164129
99	0xbee75d92	-0.45188576
100	0x3f10e71b	0.5660264
101	0xbf26d929	-0.6517511
102	0xbf01ae15	-0.50656253
103	0x3f1942a3	0.59867305
104	0xbe81846d	-0.25296345
105	0xbcc65d60	-0.024214447
106	0x3e018804	0.12649542
107	0xbf1e78a2	-0.6190282
108	0x3ebb2c26	0.3655712
109	0x3d41c370	0.047305524
110	0xbd474580	-0.048650265
111	0x3e938cf2	0.2881847
112	0x3dd2bc76	0.10289852
113	0xbd3a1733	-0.04543228
114	0x3e1a6139	0.1507615
115	0xbf2e1724	-0.6800406
116	0xbf0d8c38	-0.5529208
117	0x3ef6f2b1	0.48232034
118	0xbe2de8d4	-0.16983348
119	0x3dcdd0a8	0.10049564
120	0xbf208a3d	-0.62710935
121	0x3f0433a1	0.5164128
122	0x3d118885	0.035530586
123	0x3e811fa2	0.25219446
124	0xbef2426f	-0.4731631
125	0x3f020171	0.5078345
126	0x3f2a2f14	0.66478086
127	0x3ed21fe8	0.41039968

fc1.bias f4 [64]
0	0x3f3f0d72	0.7462989
1	0x3ef5ef82	0.48034292
2	0xbf0cf9a3	-0.55068415
3	0x3ebccf05	0.36876693
4	0xbf12e612	-0.5738231
5	0x3ed9dc2e	0.42550796
6	0xbea20d08	-0.31650567
7	0xbebe80e9	-0.37207726
8	0x3e8aecb8	0.27133727
9	0xbdad9cd0	-0.08477175
10	0xbe1dd5b0	-0.15413547
11	0xbe92dfe5	-0.28686443
12	0x3e59751b	0.21236078
13	0xbee54692	-0.44780403
14	0x3eab3390	0.33437777
15	0xbe28cb68	-0.16483843
16	0x3f25e5dd	0.6480387
17	0x3f0f3511	0.5594035
18	0xbdb626ea	-0.08894141
19	0xbed35805	-0.4127809
20	0xbe8dda4c	-0.2770561
21	0xbef81594	-0.48453963
22	0xbdf6994a	-0.12040956
23	0xbf04d6e8	-0.5189042
24	0x3eeba7e8	0.4602654
25	0xbf086a89	-0.5328756
26	0xbf349f44	-0.7055552
27	0xbb62d609	-0.0034612438
28	0x3e816fb3	0.25280532
29	0x3e96fa6b	0.2948793
30	0x3e231e07	0.15929423
31	0x3e96d187	0.29456732
32	0xbd0b631e	-0.034030072
33	0xbebc2cc1	-0.36752895
34	0x3f0c2835	0.5474885
35	0xbf1a0921	-0.6017018
36	0x3ddb85ca	0.107188776
37	0x3e06f308	0.13178647
38	0xbee483f6	-0.44631928
39	0x3e4d5314	0.20051223
40	0xbd9b3798	-0.07578963
41	0x3ebd8948	0.370188
42	0xbe04ccfc	-0.1296882
43	0xbb1a528d	-0.002354774
44	0x3e7d9158	0.24762475
45	0xbee16a03	-0.44026193
46	0x3da84ae7	0.082174115
47	0x3f125961	0.5716763
48	0xbf0d6e3a	-0.5524632
49	0xbea878ac	-0.32904565
50	0xbf299370	-0.66240597
51	0x3f0ca1d6	0.5493444
52	0xbed3d7ff	-0.4137573
53	0xbed762a4	-0.42067444
54	0xbf1ab0f1	-0.6042624
55	0xbe81d347	-0.25356504
56	0x3ea5d1a8	0.32386518
57	0x3efc3a9f	0.49263474
58	0x3ed9039b	0.42385563
59	0xbe2e958c	-0.17049235
60	0xbeacd2e3	-0.33754644
61	0x3e52e307	0.20594417
62	0xbeb6a3fd	-0.35671988
63	0xbead038e	-0.33791775

fc2.weight f4 [64, 64]
0	0xbdd73272	-0.105076686
1	0xbbe1c80d	-0.006890303
2	0x3d7e8b44	0.062144533
3	0xbc6f99bd	-0.014624056
4	0xbde95590	-0.11393273
5	0xbdc43ebe	-0.095822796
6	0x3d461cea	0.04836742
7	0x3d54e5c0	0.05197692
8	0x3dc5b75e	0.09654115
9	0xbccb7ca0	-0.0248397
10	0xbde6a158	-0.11261243
11	0x3ce486f8	0.02789639
12	0xbd699b5f	-0.05703294
13	0xbcb93788	-0.022609487
14	0x3d26e87b	0.040749054
15	0xbb38fe40	-0.0028227717
16	0x3d3bbd99	0.04583511
17	0xbe04cc1a	-0.12968484
18	0x3d771fdb	0.060333114
19	0x3c5358a0	0.012899548
20	0xbd6785c4	-0.056524053
21	0x3de57838	0.112045705
22	0xbba52e0b	-0.005040889
23	0xbd83ae36	-0.064297125
24	0xbdb00069	-0.08593828
25	0x3d6c010c	0.057618186
26	0x3be722c0	0.007053703
27	0x3ccad80d	0.024761224
28	0xbd4b9530	-0.049702823
29	0x3d57ef9a	0.052718736
30	0xbbd2d803	-0.006434442
31	0x3d374484	0.044743076
32	0x3d8d330c	0.06894502
33	0xbd627a1c	-0.055292234
34	0xbd0fa5cd	-0.03507023
35	0x3cb3d6d8	0.021953031
36	0xbd5268c1	-0.051369432
37	0xbdf7cad8	-0.12099236
38	0x3ddb3fc8	0.10705525
39	0x3d1f47fe	0.038887016
40	0x3ddc6852	0.10762085
41	0xbc574fdc	-0.013141599
42	0xbd61ab3c	-0.055094942
43	0x3cb36456	0.02189843
44	0x3d81e074	0.06341639
45	0xbbbf20a0	-0.0058327466
46	0x3dbf9d31	0.09356154
47	0x3caa31ea	0.020775754
48	0xbd3c0d20	-0.045910954
49	0x3d058d7c	0.032605633
50	0xbcd0b098	-0.025474831
51	0xbb307ef0	-0.002693113
52	0x3d2c90d4	0.042130306
53	0xbd7ea84c	-0.06217222
54	0x3d16c6c8	0.036810666
55	0xbdb697f8	-0.089157045
56	0x3d238d83	0.039929878
57	0xbdf9620f	-0.12176906
58	0x3d8feaf5	0.07027236
59	0x3c0ba5f0	0.008523449
60	0x3d5b4de0	0.053541064
61	0x3d551a38	0.052026957
62	0x3df950ae	0.121735916
63	0xbd5f3b88	-0.054500133
64	0xbdc41ae5	-0.09575442
65	0x3d2c88ce	0.042122655
66	0xbd1d8e40	-0.03846574
67	0x3d2cc1bb	0.042176943
68	0xbd356214	-0.044282988
69	0x3df1c1db	0.11804553
70	0xbcdaa3a4	-0.026689358
71	0xbd780bf4	-0.060558274
72	0x3c80a25e	0.015702423
73	0xbcbfade0	-0.02339834
74	0x3d519590	0.051168025
75	0xbd3b41cc	-0.045717046
76	0xbb5d0d52	-0.0033729863
77	0xbc813ae0	-0.015775144
78	0xbd3a50f7	-0.04548737
79	0x3cb4c740	0.022067666
80	0x3db6b709	0.0892163
81	0x3d11abe6	0.035564326
82	0x3df58722	0.11988665
83	0xbd7af648	-0.06127003
84	0x3d026ae0	0.031840205
85	0xbdaa4404	-0.08313754
86	0x3b1b7385	0.0023719978
87	0xbdaf776c	-0.085677
88	0x3da6ec6e	0.08150564
89	0xbd8bc99c	-0.06825563
90	0x3de5aaa2	0.11214186
91	0xbdc8e53f	-0.0980935
92	0xbc89bf9b	-0.016814997
93	0xbdb868a5	-0.09004334
94	0x3d367ec6	0.044554494
95	0xbcfac8be	-0.0306133
96	0xbd577ed8	-0.052611202
97	0x3d965018	0.073394954
98	0x3dfa6c19	0.12227649
99	0xbd4c0b64	-0.04981555
100	0xbdc96aee	-0.09834848
101	0xbc1c01d0	-0.0095219165
102	0x3bc44820	0.0059900433
103	0x3e03ae35	0.12859423
104	0x3de6aadc	0.112630576
105	0x3e18dd35	0.14928134
106	0xbd66dec0	-0.056364775
107	0x3dce19d3	0.10063519
108	0xbcd3786d	-0.02581426
109	0x3db2f182	0.0873747
110	0xbcbd0bfd	-0.023077006
111	0x3d810964	0.06300619
112	0xbd356d00	-0.044293404
113	0xbc073c40	-0.008254111
114	0xbd2b7a64	-0.041864768
115	0x3de9bc51	0.11412872
116	0xbde36d00	-0.111047745
117	0xbcd72050	-0.026260525
118	0x3d9e106e	0.077179775
119	0x3cd80708	0.02637054
120	0xbd2f6267	-0.042818453
121	0xbc9431cf	-0.018090157
122	0x3dd393ee	0.1033095
123	0x3df77742	0.120832935
124	0x3de8aaf0	0.11360729
125	0xbdeab49c	-0.1146023
126	0x3b1cd700	0.002393186
127	0x3dd51db2	0.104060546
128	0x3d31ab18	0.04337606
129	0xbdf3d43e	-0.11905716
130	0xbd076318	-0.033053488
131	0x3dda587a	0.10661407
132	0x3d88007e	0.06640719
133	0x3db91cfc	0.090387315
134	0x3d9a957c	0.07548043
135	0x3d557834	0.052116588
136	0xbdbb0286	-0.09131341
137	0xbdbd8e92	-0.09255709
138	0x3d793b44	0.060847536
139	0x3b5e4180	0.0033913553
140	0xbdf3d5c6	-0.119060084
141	0xbd3860ac	-0.04501407
142	0xbdf3fa0c	-0.11912927
143	0x3d5660f4	0.052338555
144	0xbc5c1a30	-0.013433978
145	0x3d125890	0.03572899
146	0xbd851974	-0.064989954
147	0x3d25d030	0.040481746
148	0xbbfa6fc0	-0.007642716
149	0xbda477f6	-0.08030693
150	0xbdc8df28	-0.09808189
151	0xbd922ca0	-0.07137418
152	0xbdcd85d6	-0.10035293
153	0xbdea3924	-0.1143668
154	0xbd9a1894	-0.07524219
155	0xbd400d70	-0.046887815
156	0x3d55fbb4	0.052241996
157	0xbdd6fb92	-0.10497202
158	0xbcd31080	-0.025764704
159	0x3c4b4a00	0.01240778
160	0xbdb80c00	-0.08986664
161	0x3c8ee800	0.01744461
162	0x3dc58de0	0.09646201
163	0x3d0a4b90	0.03376347
164	0x3d2faa70	0.04288715
165	0x3dd76498	0.105172336
166	0xbdc11e48	-0.09429604
167	0x3d73bbc4	0.05950524
168	0xbddc1ab6	-0.10747282
169	0xbb6b0300	-0.0035859942
170	0x3cf3ecf0	0.029776067
171	0xbb9da2a0	-0.004810646
172	0xbaecb880	-0.0018060356
173	0x3daf381a	0.085556224
174	0xbd8529d0	-0.06502116
175	0xbd005104	-0.031327263
176	0x3ca71478	0.020395502
177	0xbd2c2bec	-0.042034075
178	0x3d56fe5c	0.05248867
179	0xbd149cc8	-0.03628233
180	0xbc5bb930	-0.013410851
181	0x3c0598b0	0.008154079
182	0x3dfa2de8	0.12215787
183	0xbda22478	-0.07917112
184	0xbda24762	-0.079237714
185	0xbd1e5220	-0.03865254
186	0x3dff4026	0.12463407
187	0x3de00138	0.109377325
188	0x3debe5d0	0.11518443
189	0xbde2273a	-0.11042638
190	0xbbacd640	-0.005274564
191	0x3db9a11c	0.09063932
192	0x3d74216c	0.059602186
193	0x3d75d208	0.060014755
194	0xbcdb0f18	-0.026740596
195	0xbd5a1abd	-0.053248156
196	0x3d5fae38	0.054609507
197	0xbd4f57b8	-0.050620764
198	0x3e091a54	0.1338895
199	0xbd08c350	-0.03338939
200	0x3e248b1d	0.16068693
201	0x3d936082	0.07196142
202	0x3d9e5d76	0.0773267
203	0xbd7ae28c	-0.06125121
204	0xbcd60b19	-0.026128339
205	0xbd804f02	-0.062650695
206	0x3db6971f	0.08915543
207	0xbd164744	-0.036689058
208	0x3de3d389	0.111243315
209	0xbdc27b56	-0.09496181
210	0x3da4713a	0.08029409
211	0x3cb18b88	0.021672979
212	0x3d239ee8	0.039946467
213	0xbd020d80	-0.031751156
214	0xbd86bd64	-0.06579092
215	0x3ec6bebe	0.388174
216	0xbbf5d4ba	-0.0075021656
217	0x3a484300	0.00076393783
218	0x3d1edad0	0.038782895
219	0xbe0ccc01	-0.13749696
220	0x3f30a890	0.69007206
221	0x3d56c3de	0.052432887
222	0x3e014a4a	0.12625995
223	0x3d9ef77b	0.07762047
224	0xbebe5a90	-0.3717847
225	0xbce0ed38	-0.027456865
226	0x3dc812d0	0.09769213
227	0x3d0ba4a4	0.03409256
228	0xbcc2ebe5	-0.023794124
229	0x3dfaa6f8	0.12238878
230	0x3d2a5d38	0.041592807
231	0xbcdf5c99	-0.027265834
232	0x3d5a09a0	0.053231835
233	0xbdbe29fc	-0.09285352
234	0xbda9b66a	-0.08286746
235	0xbed66409	-0.41873196
236	0x3f39bdd9	0.7255531
237	0x3d55d5d8	0.05220589
238	0xbd9f8a08	-0.07789999
239	0xbd677df4	-0.056516603
240	0xbdb6a016	-0.08917253
241	0x3da5d7c6	0.08097796
242	0x3d12c338	0.035830706
243	0xbda4cee2	-0.08047272
244	0x3df097de	0.11747716
245	0x3df3e44e	0.1190878
246	0x3d88c6de	0.06678556
247	0x3db9a852	0.09065308
248	0x3d7116ba	0.058859564
249	0x3dda5a23	0.106617235
250	0x3e0bc05c	0.13647598
251	0xbd486224	-0.04892172
252	0xbca69b28	-0.020337656
253	0x3df68a0f	0.12038051
254	0xbd726e54	-0.05918725
255	0x3cb56687	0.022143615

fc2.bias f4 [64]
0	0x3ddb5a67	0.10710602
1	0xbd983616	-0.07432191
2	0xbce48440	-0.027895093
3	0x3dbb05ea	0.091319874
4	0xbca4415c	-0.020050697
5	0x3bb92739	0.0056504277
6	0xbd8e10e0	-0.069368124
7	0xba41d900	-0.0007394701
8	0xbd4f6a04	-0.050638214
9	0xbcf0e3c0	-0.029405475
10	0x3d6abf4d	0.057311345
11	0x3df69b7f	0.12041377
12	0xbde51646	-0.11185889
13	0xbdc24952	-0.09486641
14	0x3cd993f0	0.0265598
15	0xbd285e1c	-0.041105375
16	0x3d2113c4	0.03932549
17	0xb94328b2	-0.0001861181
18	0x3c3e8100	0.011627436
19	0xbd24d048	-0.040237695
20	0x3da42508	0.08014876
21	0xbb063420	-0.0020477846
22	0xbd9a1478	-0.07523435
23	0xbdb3708d	-0.08761702
24	0x3ba093ab	0.004900416
25	0xbda5a09e	-0.08087276
26	0x3cf8a7be	0.030353423
27	0xbcc215f0	-0.023692101
28	0xbdfed44e	-0.12442838
29	0x3dab19f3	0.08354559
30	0x3dd8cc35	0.105858244
31	0xbdb96508	-0.09052473
32	0xbba8dfde	-0.00515364
33	0x3d224c11	0.039623324
34	0xbd753760	-0.059867263
35	0x3dc1ef9d	0.09469531
36	0x3d793369	0.060840044
37	0x3de1f10e	0.11032306
38	0xbcdb056b	-0.026735982
39	0x3c7012e9	0.014652946
40	0xbbfaba80	-0.007651627
41	0x3de98698	0.11402625
42	0x3c53a5f0	0.012917981
43	0xbd152e58	-0.03642115
44	0xbcaf61b0	-0.021408886
45	0xbd407e8e	-0.046995692
46	0x3d403c09	0.046932254
47	0xbd53c7f0	-0.051704347
48	0xbd05c0e8	-0.032654673
49	0xbd200d70	-0.039075315
50	0xbd43b024	-0.047775403
51	0x3cf14468	0.029451564
52	0x3c34a9d0	0.011026815
53	0x3d326110	0.043549597
54	0xbd315cfc	-0.043301567
55	0x3d3a634c	0.045504853
56	0xbceac100	-0.028656483
57	0x3e3370f5	0.17523558
58	0xbd6fbe89	-0.058531318
59	0x3d888e32	0.066677466
60	0x3d3f1a3a	0.04665587
61	0x3d23db43	0.040004026
62	0x3d9b0d0d	0.075708486
63	0x3dcdc126	0.10046606

fc3.weight f4 [16, 64]
0	0xbda53153	-0.080660485
1	0x3bbb58bb	0.0057173646
2	0x3dff14a6	0.1245511
3	0x3be05287	0.0068457755
4	0x3d7df283	0.061998855
5	0x3cf6665d	0.030078107
6	0xbcc0f110	-0.023552448
7	0x3cfb5750	0.030681282
8	0xbd1439e4	-0.03618802
9	0x3c007240	0.007839739
10	0x3d4429e9	0.04789153
11	0xbda69e06	-0.08135609
12	0xbdbbf719	-0.091779895
13	0x3c63f460	0.013913244
14	0xbdc26482	-0.094918266
15	0x3d5f1116	0.054459654
16	0x3d8767fc	0.0661163
17	0xbbadbd09	-0.0053020758
18	0x3d6a8f38	0.05726549
19	0x3d26c350	0.04071361
20	0x3ddbc38c	0.10730657
21	0x3b5d50ed	0.003377016
22	0x3c9483e8	0.018129304
23	0xbd32cbe4	-0.043651477
24	0xbcff026c	-0.031129085
25	0xbd848448	-0.06470543
26	0xbd6a612d	-0.05722158
27	0x3d6d3ffc	0.05792235
28	0x3d4fdbd8	0.05074677
29	0x3d90633d	0.07050178
30	0xbc8f900e	-0.017524745
31	0xbcca7010	-0.024711639
32	0x3c526c0a	0.012843141
33	0xbd66c737	-0.05634233
34	0xbd0a752c	-0.03380315
35	0xbd1b68bd	-0.037941683
36	0xbd559f1f	-0.052153703
37	0x3d714733	0.05890579
38	0x3dbeeb14	0.09322181
39	0xbc2495d8	-0.010045491
40	0xbd159970	-0.036523283
41	0xbd9c34df	-0.07627272
42	0xbc892fc0	-0.016746402
43	0xbdee1972	-0.11625947
44	0x3c08e550	0.008355454
45	0xbc10e563	-0.008843753
46	0x3dd40bdc	0.103538245
47	0x3d5415c0	0.051778555
48	0x3d2082e4	0.039187327
49	0xbd3a9fc4	-0.04556252
50	0xbd88656c	-0.0665997
51	0xbadaa0f9	-0.0016680054
52	0xbcfdc997	-0.030979915
53	0xbc457fd0	-0.012054399
54	0x3da42cc2	0.080163494
55	0xbd87e0de	-0.06634687
56	0xbddac9ae	-0.106829986
57	0x3d2d38ce	0.0422905
58	0xbd942f87	-0.072356276
59	0xbdd8577d	-0.10563562
60	0x3d23c850	0.039985955
61	0x3d0e07de	0.03467547
62	0x3d5d2d3e	0.053998224
63	0x3d5d6b08	0.05405715
64	0xbdc96211	-0.09833158
65	0xbcca75e9	-0.024714427
66	0xbd55ef2c	-0.052230045
67	0xbdcb1c4c	-0.099175066
68	0x3dd2c2fa	0.10291095
69	0x3a90cfd5	0.0011048267
70	0x3cc0dd78	0.023543105
71	0xbce8e740	-0.028430581
72	0xbd887bec	-0.06664261
73	0xbdbd8cb2	-0.09255351
74	0xbe177800	-0.1479187
75	0x3d27aff7	0.040939298
76	0xbd89620b	-0.06708153
77	0xbd95b4b6	-0.073098585
78	0x3bd1f900	0.006407857
79	0xbd0749ad	-0.033029247
80	0x3d6155bf	0.055013414
81	0x3d53f118	0.051743597
82	0x3cefe2f8	0.029283032
83	0xbc9cede3	-0.019156402
84	0xbd726d03	-0.059185993
85	0xbdda964b	-0.10673197
86	0x3dad633c	0.08466193
87	0xbc8c0800	-0.017093658
88	0x3dab13be	0.08353375
89	0xbd11da9a	-0.035608865
90	0x3da98fbe	0.0827937
91	0xbd6aad54	-0.057294205
92	0xbd68e290	-0.05685669
93	0xbcd16d39	-0.025564777
94	0xbde16cd9	-0.11007089
95	0x3dbaeeb6	0.09127562
96	0xbde087c8	-0.10963398
97	0xbc6c535a	-0.014424169
98	0x3d1c23fc	0.038120255
99	0xbb8aff4e	-0.0042418605
100	0xbd0e1981	-0.03469229
101	0xbca0b968	-0.019619659
102	0x3d84ef6c	0.064909786
103	0x3df717cb	0.12065085
104	0xbd979292	-0.07401003
105	0xbd3bca80	-0.045847416
106	0xbd095f30	-0.033538043
107	0x3c03e0f0	0.008049235
108	0xbddad89e	-0.10685848
109	0x3daac915	0.083391346
110	0x3d9780ec	0.07397637
111	0x3cc21e08	0.02369596
112	0xbce87e90	-0.028380662
113	0xbca28ef8	-0.019843563
114	0x3b44dd40	0.0030039102
115	0xbde131a3	-0.109957956
116	0xbd0a3d40	-0.03374982
117	0xbd62357c	-0.055226788
118	0xbdfef36a	-0.12448771
119	0xbd1e214e	-0.03860598
120	0xbde4e8f4	-0.11177245
121	0xbcb8327f	-0.022485016
122	0xbc513c01	-0.012770654
123	0xbbbf9d39	-0.0058476
124	0x3e02707e	0.12738225
125	0x3d3c2d04	0.045941368
126	0x3df996c3	0.12186959
127	0x3dfbee6a	0.12301333
128	0xbd3667ac	-0.044532463
129	0x3c352f2e	0.011058612
130	0xbc844f48	-0.016151085
131	0xbc8304eb	-0.015993556
132	0x3c5054c1	0.012715519
133	0xbd94f0dd	-0.072725035
134	0xbdd4bb94	-0.1038734
135	0x3c06bbf0	0.008223519
136	0x3da6e320	0.081487894
137	0xbddb0374	-0.10694018
138	0x3d82bef1	0.063840754
139	0x3dc09118	0.094026744
140	0xbdb89191	-0.090121396
141	0xbc912190	-0.0177162
142	0xbdf89c24	-0.121391565
143	0xbc868019	-0.016418504
144	0xbb039153	-0.0020075634
145	0xbc25fbeb	-0.010130863
146	0xbda58044	-0.08081105
147	0x3dff2ebe	0.12460087
148	0x3d85efd8	0.06539887
149	0x3c361fe3	0.011116001
150	0x3d8021fc	0.06256482
151	0x3d32156a	0.043477453
152	0xbded2ded	-0.11581025
153	0xbd3e3bfb	-0.04644392
154	0x3d7582ea	0.059939303
155	0xbd855b4e	-0.065115556
156	0x3c7b4960	0.015337318
157	0xbca1d4d1	-0.0197548
158	0xbd698ff6	-0.057022057
159	0x3d8f3ef6	0.06994431
160	0xbb7873a3	-0.0037910722
161	0xbd4040eb	-0.04693691
162	0xbc864a78	-0.016392931
163	0xb94c2768	-0.00019469636
164	0xbcb80ed9	-0.022468017
165	0x3d628c10	0.055309355
166	0xbc2f87d3	-0.010713535
167	0xbdce0149	-0.10058839
168	0xbdccf170	-0.10006988
169	0x3c8b2c5c	0.016988926
170	0x3d8dc63c	0.06922576
171	0xbbd7dee0	-0.006587848
172	0x3cc14748	0.02359356
173	0x3db19b6b	0.08672222
174	0x3c9dca1d	0.019261414
175	0xbd9f26a0	-0.07771039
176	0xbd7312e4	-0.059344187
177	0x3dc5f86e	0.09666525
178	0x3d62a138	0.05532953
179	0xbd9f369f	-0.0777409
180	0xbcb89a7d	-0.022534603
181	0x3def63da	0.11688967
182	0xbddf2bd0	-0.108970284
183	0xbd1a6f02	-0.03770352
184	0xbd9a9e50	-0.07549727
185	0xbdd4a2b0	-0.10382593
186	0xbd1ad3cc	-0.03779964
187	0xbc16a99e	-0.009195713
188	0x3da2eb5e	0.07955049
189	0x3d25c0dd	0.040467132
190	0x3cad12cd	0.021127129
191	0xbdbd7f7e	-0.09252833
192	0xbce24f21	-0.027625622
193	0x3b09293e	0.0020929123
194	0x3c929410	0.017892867
195	0x3dc093b7	0.09403174
196	0xbd45b16e	-0.048264913
197	0x3d67aeb0	0.05656308
198	0xbdb20d24	-0.086939126
199	0xbda077a0	-0.07835317
200	0xbb6fa7c0	-0.0036568493
201	0xbc504da0	-0.01271382
202	0xbdabee99	-0.08395118
203	0x3cd21fff	0.025650023
204	0x3dd48796	0.103774235
205	0xbc3cedd0	-0.011531308
206	0x3db29ca4	0.08721283
207	0x3ceda16f	0.029007642
208	0xbce7a928	-0.028278902
209	0x3dffc2c5	0.12488321
210	0x3be938e0	0.0071173757
211	0xbd89124c	-0.06692943
212	0x3d9f9111	0.07791341
213	0xbdb148b3	-0.086564444
214	0xbde20706	-0.11036496
215	0xbe06a929	-0.13150467
216	0x3d4f562e	0.050619297
217	0x3aa2581f	0.0012385881
218	0x3d7207bb	0.059089404
219	0xbd91499e	-0.070941195
220	0xbc80ce08	-0.015723243
221	0x3d8c01ce	0.06836282
222	0xbdb3c07b	-0.08776947
223	0xbd53ab70	-0.051677167
224	0xbd4bdb87	-0.049769904
225	0xbd7f80b1	-0.06237859
226	0x3df54e42	0.11977817
227	0x3dabb684	0.083844215
228	0x3ce54010	0.027984649
229	0x3d7a6901	0.061135296
230	0x3da5f533	0.08103409
231	0xbd8b06d9	-0.067884155
232	0xbd5205d4	-0.05127509
233	0xbe0297b3	-0.12753181
234	0xbda9edfc	-0.08297345
235	0x3d689c64	0.05678977
236	0x3de648c8	0.11244351
237	0x3c767144	0.015041653
238	0x3c818fe2	0.015815679
239	0x3d413870	0.047172964
240	0xbdd3ebbe	-0.10347699
241	0xbdcd1f5a	-0.100157455
242	0x3db9c502	0.090707794
243	0x3db86292	0.09003176
244	0x3c878908	0.016544834
245	0x3da33e00	0.0797081
246	0x3dae8e0e	0.085231885
247	0x3d5488ad	0.051888157
248	0xbcaf1420	-0.021371901
249	0x3d5911b1	0.052995387
250	0x3de9421f	0.11389565
251	0xbd76c01c	-0.060241804
252	0x3cdac586	0.026705515
253	0x3cb41097	0.021980567
254	0x3de812c7	0.113317065
255	0xbda67104	-0.08127025

fc3.bias f4 [16]
0	0x3cf90790	0.030399114
1	0x3de4fa69	0.111805744
2	0x3d59770c	0.053092048
3	0xbc68153e	-0.014165221
4	0x3e11edd6	0.14250883
5	0x3d3dfcf6	0.04638382
6	0x3b819bcf	0.0039553414
7	0x3e375547	0.17903624
8	0x3dc0589f	0.09391903
9	0x3dcf1180	0.1011076
10	0x3e53db48	0.20689118
11	0x3d9de5b9	0.07709832
12	0x3c2d00b3	0.010559249
13	0xbd407ab0	-0.046992004
14	0x3c0b04c7	0.008485026
15	0xbab6bcd2	-0.0013941771
