best_models/best_model.pth (torch, 24294 bytes, 6 tensors)

fc1.weight f4 [64, 2]
00000000: 7574 053f 609b 0f3d af3a 28bf 0956 51be
00000010: ccfe 19be c84b 07bf b4e8 4a3f 0e4f 58bf
00000020: 18c2 6e3e 1d87 31bf c2fc a53e f6b3 82be
00000030: c83f 983d f8c7 a53d 9d5a 823e d4c7 e5be
00000040: 7dfc a1be 6e8f 1fbf 5c16 98be a079 b7bc
00000050: 8228 b13e 8adb 0cbf 30f3 2b3f 6eaf a93e
00000060: a925 603e 5a84 963e 7cb8 483e 5638 30bf
00000070: 6dad 703e a465 733d 314e fcbe 077d f1be
00000080: 7e22 65be 0810 dcbe f086 c1bd b893 0ebe
00000090: 5a0a a43d ce6b 0fbf 7c33 083f 9561 573e
000000a0: 2f3b 1dbf 3990 afbe fd80 063f 71e4 07bf
000000b0: d969 acbe 2c9a b3bd 008b bf3c ae6c 29bf
000000c0: 667e 953e 3207 173f 0992 dd3e 79cc 1c3f
000000d0: f6f5 2bbf e134 23bf 79a4 273d 46a5 b83e
000000e0: d93c f5be f843 dd3e 7430 83be 5e44 6a3e
000000f0: 122c ac3e 011d 323e 10f5 433f f68f a83e
00000100: e78f 8ebe d44e 5abe dc2c 123f 28ce b1be
00000110: 88d3 b9bd ba60 cdbe b2be 17be bc2a 1cbe
00000120: a827 92bd 8ffb 8cbe b63b a23e 5bb4 10bf
00000130: d642 973e 3fbb 7dbe 0d35 283e 0fb2 f2be
00000140: b444 513e e8f4 e8bd 9b60 9ebd 5b8f e7be
00000150: 3cd6 253d 888d 893e 216c fbbe 40f5 dbbc
00000160: d4a5 97be 08bb 6bbe 7301 03bf 41e8 2abf
00000170: 2086 a7be c265 23bf 539b 1d3f 6a68 003c
00000180: b7fc 1ebf ab49 0cbd 0955 113f 2ea5 12be
00000190: d15c eabe 0e29 d3be 2016 5b3d dadc a63e
000001a0: 2a49 a6be 4f04 12bf 21fc 483e 1f5a 20bf
000001b0: 8ba4 2abe 866e f6be a8ac dabe 09a9 173f
000001c0: 8059 f5be 36a4 66be 219d 2cbf e828 0cbf
000001d0: 6244 ff3e b149 fc3e 1e70 0fbf 65ef 9fbe
000001e0: ee56 1cbf 5b57 e33e 451d fabe 04bb 783e
000001f0: 866f 09bf 718a 523e 9682 fe3e 7ad1 f5be
0.52130824 0.035060287 -0.65714544 -0.20442976 -0.15038604 -0.5285001 0.79261327 -0.8449563
0.23316228 -0.6934679 0.324194 -0.25527924 0.0743404 0.08094782 0.25459757 -0.4487902
-0.31637946 -0.6232823 -0.2970456 -0.022396863 0.34601218 -0.5502249 0.6716795 0.33141655
0.21889366 0.2939785 0.19601625 -0.6883596 0.23503657 0.059423104 -0.49278405 -0.471657
-0.22376439 -0.4298098 -0.094495654 -0.13923538 0.08009787 -0.5602387 0.5320356 0.21033318
-0.6141843 -0.3428972 0.5254057 -0.5308295 -0.33674505 -0.0876964 0.02338171 -0.6618146
0.29197997 0.58995354 0.43275478 0.612495 -0.6717218 -0.6375256 0.040928338 0.36063594
-0.47897986 0.4321592 -0.25622904 0.22877643 0.33627373 0.17393877 0.7654581 0.32922333
-0.27844164 -0.21319133 0.570997 -0.34727597 -0.090735495 -0.4011286 -0.14818838 -0.15250677
-0.0713647 -0.27535674 0.3168618 -0.565252 0.2954318 -0.2477846 0.16426487 -0.47401473
0.20436364 -0.11374837 -0.0773327 -0.4522656 0.040487513 0.26865792 -0.49105933 -0.026850343
-0.29618704 -0.23020566 -0.51174086 -0.6676064 -0.32719517 -0.63827145 0.6156513 0.007837394
-0.6210436 -0.034249943 0.5677038 -0.14320824 -0.45773938 -0.4124226 0.053487897 0.3259037
-0.32477695 -0.57037824 0.1962743 -0.62637514 -0.1666433 -0.48131198 -0.4270985 0.592423
-0.47919846 -0.22523579 -0.6742726 -0.5474992 0.4985686 0.49274972 -0.5603045 -0.3123733
-0.61070144 0.44402584 -0.48850456 0.24290091 -0.53685796 0.20560624 0.49709004 -0.4801138

fc1.bias f4 [64]
00000000: 3029 ecbe e131 ac3e 40cd 4c3c 887a 3a3b
00000010: d220 b23e e139 b8be 4a01 18bf b6bc ee3e
00000020: bf24 0bbf 5bbe 9cbe 184d 17bf dfb9 e1be
00000030: af48 5f3e 5b60 2cbf b632 6fbe d160 ef3e
00000040: 47e1 ad3e b0e0 383d f250 073f 5b0b 01ba
00000050: 5fae 293f 6cb0 a53e 5f98 aa3e 6c95 99be
00000060: c1eb 833e 5088 8b3e f80f debe d0d0 c33e
00000070: 3267 0b3f b0fd 123f 653a 6d3e 44f7 e9be
00000080: 0c18 11bf 0c13 42be 087a 84bd 43b1 ac3e
00000090: e0fb 26bf 18ee 43be d9f1 77bd e5f9 6c3e
000000a0: b9d0 1dbf 5882 b93e 4176 9c3e 2f89 c5be
000000b0: 7e3e c1be a031 8dbd a42f 1fbe 7bf0 023f
000000c0: 8c63 ba3e ae5f b3be a65a 2bbf c473 26bf
000000d0: 20fd 09bd 071a c23e eb47 bd3e 16e6 103f
000000e0: ea04 34bf d677 133f cd95 00bf f817 9b3d
000000f0: a9e7 a83e d8fb d9bd 876f 883e 696b 98be
-0.46125174 0.33631805 0.012500107 0.0028454382 0.34790665 -0.35981658 -0.59376967 0.4662835
-0.54352945 -0.3061398 -0.5910201 -0.4408712 0.2180507 -0.67334527 -0.23359188 0.46753553
0.33960935 0.045136154 0.5285789 -0.00049226516 0.66281694 0.32361162 0.33319375 -0.29996812
0.25765803 0.27252436 -0.43371558 0.3824525 0.5445434 0.57418346 0.23166807 -0.4569646
-0.5667732 -0.18952578 -0.06468588 0.3372899 -0.6522808 -0.19133794 -0.06053338 0.23142202
-0.6164661 0.36232257 0.3055897 -0.38581225 -0.3774299 -0.06894231 -0.15545517 0.51148194
0.36404073 -0.35033935 -0.66935194 -0.65020394 -0.033688664 0.37910482 0.36968932 0.56601083
-0.7032 0.5760473 -0.5022858 0.07572931 0.32989243 -0.106437385 0.2664759 -0.29769447

fc2.weight f4 [64, 64]
00000000: f49e d0bd a462 8d3d c614 b83d 9a98 d13d
00000010: d658 a63d 80f1 d23b 48d4 223d e064 893c
00000020: 4e0f 9a3d 24dc 69bd f891 f43c 80e7 29bb
00000030: 4840 233d 1c9d 853d 26d7 e43d f482 1ebd
00000040: ca1d fbbd 6276 883d 586c 453d 1408 00bd
00000050: d6c0 c03d 2899 813c 72f6 a23d f05e d2bc
00000060: e6b4 aabd 082d 5ebd 60d9 4a3d 040c 243d
00000070: de48 9abd 6008 d6bd f060 c33c 04f3 08bd
00000080: 506f dbbc 68d5 c93d fac7 863d e247 80bd
00000090: 48c9 0ebd 903d dc3d 0cc4 04bd c427 0c3d
000000a0: f886 8c3d acbe c8bd 2446 133d b205 bcbd
000000b0: 0030 b838 6632 a03d e65f b53d 0078 b03b
000000c0: 90e1 e53d 7e7f 96bd ae19 ebbd c086 14bd
000000d0: 8c36 e9bd 2249 d4bd 7058 3a3c aa3b d8bd
000000e0: b0e1 a33c 50bf c7bc a8d0 893d 1a51 893d
000000f0: b87e 8dbd 1ea5 e0bd caf4 f33d e0be 2c3d
00000100: 2047 aebb 54a0 2c3d 5482 68bd 1ecf e3bd
00000110: e0db 783c 527b e1bd 541c 67bd fc13 7a3d
00000120: a08f c0bd e0e4 acbb 60ca e83d c850 91bc
00000130: c0af 953c a0c3 c93c c051 fe3d bea5 95bd
00000140: 0ed7 9ebd 0454 143d 801f 953a c012 f6bb
00000150: f83f f6bc 16a0 873d d840 eebc 101c 36bd
00000160: 0058 6fbb 7826 19bd d2a9 903d d41e 13bd
00000170: 58ec c43d dc42 b03d 28cf eabd 8e31 f6bd
00000180: 267c e2bd 6c2e 1bbd be85 f53d 6e48 c9bd
00000190: 4c03 bf3d a429 4d3d 6000 ffbd e461 66bd
000001a0: b888 47bd 2826 e3bc 703c d73c 9875 cfbc
000001b0: 9417 99bd 7e3b d3bd 521a ee3d d0cf 0bbc
000001c0: fcbb 91bd 804e 5f3c 0023 973b dc46 5c3d
000001d0: 6c85 c13d a025 963d 6031 cdbb c075 423d
000001e0: 4c27 033d 76e6 fbbd ec2d 22bd 6883 c7bd
000001f0: e4e7 dabd 7487 f1bd a819 003d 2460 89bd
00000200: 5c33 f7bd da8c 543d 6850 2bbd e4e1 87be
00000210: d0c0 00be 403e 36bb c0a1 aabc 88f7 b3bc
00000220: 5e2c bdbd 0878 d0bc bc83 7e3d 68d3 083e
00000230: 6a0b 9dbd 60e7 0b3d f833 c73d bd61 203d
00000240: fe68 66bd fcd9 bf3d cb40 00bc e943 e43d
00000250: a4bf 88bc 8305 ac3d 2984 973d cc0f b0bd
00000260: 36ec 6abd 441f 5b3d 00bf 343d 454f d13d
00000270: 182e 883d 1032 c03d 283f c23d bd80 ed3d
00000280: 8037 9fbd dacb 81bd 1e3b ddbd 4468 4d3c
00000290: 18c3 a33c c039 fd3b c214 45be fc62 f5bd
000002a0: b6a5 dabd 0846 d8bc d5e9 b93d 86e3 b2bd
000002b0: 5c9c e53d 7ef6 b43d 7c50 c7bd 03bb c2bd
000002c0: a8e7 08be 90e0 c83b 3af0 f4bd 7809 dc3c
000002d0: 10ed cbbd ecd5 043d f4da 86bd a49d 1a3d
000002e0: f07a 0d3c 7c6b 913d e39e a33e 0410 e2bd
000002f0: 7e7e 9c3d cc6e 12bd 9121 15ba 3093 59bc
00000300: 50ca cbbc bee2 1d3d b04f 6e3d 3c22 b3bd
00000310: e004 bdbd 6cfe 8a3d 8c28 383d b41b 25be
00000320: fcb8 28bd 543f 24bd 2c94 a9bd 8534 373c
00000330: 7fa0 83bd 00d0 9f39 faf4 943d 6625 d3bd
00000340: 6282 26be 50c7 6f3c 389b 573d c8d4 c5bd
00000350: b4c7 3b3d 805d 183d 176b b7bc b4a1 c13d
00000360: b31b 6c3d c20b ab3d 5ed0 d53d 33c3 8c3d
00000370: d248 4d3d 1a3f 3cbd 1112 f5bd 2e15 a03d
00000380: 6cc1 c23d 2115 073d ac96 753d b1df a63d
00000390: 828d 9a3d 30e6 f4bd b10b 53bd 466a 04bd
000003a0: 94f1 cebd a573 4a3c 37ed c5bd e8dd ac3c
000003b0: 8a22 a6bd aedd a8bd 5a16 a63d 1adf 843c
000003c0: 8b94 d2bc 91cb e63d 4e40 d73d 503b cdbd
000003d0: 84ef 80bd 8a02 b13d 4ccd 7dbc a581 43bc
000003e0: b408 3abd 21e0 01be 7a59 863c ccc8 143d
000003f0: a5de d1bd 80ef ccbb 4e74 d03c 50ae 75bc
-0.10186568 0.0690358 0.08988337 0.102341846 0.08122413 0.0064374804 0.03975323 0.016771734
0.075224504 -0.057094708 0.02985476 -0.0025925338 0.039856225 0.06524107 0.11173849 -0.038699105
-0.12261541 0.06663205 0.048199028 -0.031257704 0.094117805 0.0158201 0.07957162 -0.025680035
-0.08335285 -0.054242164 0.04952371 0.04005052 -0.075334296 -0.10450816 0.023849934 -0.033434883
-0.026786476 0.09855157 0.06581111 -0.062637106 -0.034859926 0.107539296 -0.032413527 0.03421761
0.06861681 -0.09801993 0.035955563 -0.09180774 8.7827444e-05 0.07822113 0.08856182 0.005385399
0.11224663 -0.07348536 -0.114795074 -0.03626132 -0.11387357 -0.103655115 0.011373624 -0.10558255
0.020005077 -0.024383217 0.06729251 0.06704922 -0.06908935 -0.109689936 0.11911924 0.04217422
-0.0053185374 0.04214509 -0.056764916 -0.11123489 0.015189141 -0.110098496 -0.0564235 0.061054215
-0.09402394 -0.0052763075 0.11366725 -0.017738715 0.01827228 0.024629414 0.12417936 -0.073070034
-0.07755862 0.036212936 0.0011377186 -0.0075095594 -0.0300598 0.06622331 -0.029083654 -0.044460356
-0.0036520958 -0.037390202 0.07063641 -0.035918072 0.096153915 0.086065024 -0.11465293 -0.120211706
-0.11058836 -0.03788607 0.119884 -0.09828268 0.09326801 0.05008854 -0.124512434 -0.0562457
-0.04871437 -0.027728155 0.026273936 -0.025324628 -0.074752 -0.103140816 0.11626114 -0.008533433
-0.07115933 0.013629556 0.0046123266 0.053778514 0.09449276 0.07331395 -0.0062619895 0.047475576
0.0320199 -0.12299816 -0.039594576 -0.09741861 -0.10688761 -0.11793414 0.031274468 -0.067077905
-0.12070343 0.05189214 -0.04182473 -0.26539528 -0.12573552 -0.00278081 -0.020829082 -0.021968618
-0.09236978 -0.02544786 0.06213735 0.13361895 -0.07668193 0.034156203 0.09726709 0.03915571
-0.056252472 0.09367749 -0.007827948 0.11145765 -0.016692944 0.08399489 0.073982544 -0.08596763
-0.057354175 0.053496614 0.044127464 0.102201976 0.06649417 0.09384549 0.09484702 0.115968205
-0.07774258 -0.0633771 -0.10802291 0.012537066 0.019990489 0.0077278316 -0.192462 -0.119817704
-0.10676138 -0.026400581 0.09077803 -0.08734803 0.11211464 0.08836077 -0.09732148 -0.09508326
-0.1336962 0.0061302856 -0.11959882 0.026859984 -0.099573255 0.032430574 -0.06584731 0.037747994
0.008635268 0.07100579 0.31957158 -0.11038211 0.07641314 -0.035750195 -0.0005688901 -0.013279721
-0.024876744 0.038546316 0.058181465 -0.08746764 -0.092294455 0.06786808 0.044960544 -0.16123849
-0.04119204 -0.040099457 -0.08280215 0.011181955 -0.064270966 0.00030481815 0.07273288 -0.103098676
-0.16260675 0.014634922 0.052638263 -0.096597254 0.04584475 0.037198544 -0.022389932 0.094546705
0.057643604 0.08351852 0.104401335 0.06873169 0.050118275 -0.045958616 -0.119663365 0.0781654
0.095095485 0.032979134 0.059958145 0.081481345 0.07546522 -0.11957967 -0.05152482 -0.032327913
-0.10104671 0.012356673 -0.09664386 0.021101907 -0.081120566 -0.08245407 0.08109732 0.016219664
-0.025705596 0.11269296 0.10510312 -0.100210786 -0.06295684 0.086430624 -0.015490841 -0.011932765
-0.045418456 -0.12683155 0.016400088 0.036324307 -0.10247544 -0.0062541366 0.025446083 -0.014995173

fc2.bias f4 [64]
00000000: 784f 3f3d fc96 adbd ebd9 933d 52bc 7b3c
00000010: 62dc ad3d 0966 11bd f6f6 60bd 6d2e cc3c
00000020: 9e1e d8bc 7896 ed3b afc7 d3bc 6e2c edbd
00000030: 754d f23c 0d9e 66bd 479e 9f3d 5d68 b43d
00000040: 4806 3abc feff 5abc 7298 c8bc 203d bdbb
00000050: f0c6 48bc 9c2a 333d 4050 c03b 84f5 8f3d
00000060: 892b bbbc fb98 673d d9a1 83bc 1d19 973d
00000070: 7c98 9a3d d2ce f93c 0ac1 0fbd 8ab4 943d
00000080: 7285 fabd 11fc a8bd d346 a2bd 3855 92bd
00000090: 4b4e f7bc 6eea d3bd eafb c1bd fc2d 8bbc
000000a0: 34fb 8ebd bdb8 723d b237 743d 8c1a 1dbd
000000b0: 204b 05bd c09c 003c f2df d8bd fa0d f8bb
000000c0: b0dc 7d3d 66d6 47bb ba49 473e b071 3e3c
000000d0: fcd6 25bd 98f6 69bd ff79 d8bd 07a6 013e
000000e0: 7cbb 44bd 2c95 8b3d ca23 b7bd 1cb6 3bbd
000000f0: 2393 0c3e 846c 5c3a 64e6 f23d 00ef 713b
0.046706647 -0.084760636 0.07219299 0.015364723 0.084893 -0.0354977 -0.05492302 0.024924481
-0.026381787 0.0072506033 -0.025852052 -0.1158074 0.02957795 -0.056303073 0.07793861 0.08808968
-0.011354037 -0.013366697 -0.024486754 -0.005775109 -0.012254462 0.043741807 0.0058689415 0.0702925
-0.022847908 0.056542378 -0.016068386 0.07377837 0.07548615 0.030494127 -0.035096206 0.072609976
-0.12232484 -0.08251203 -0.07923665 -0.071451604 -0.0301887 -0.10347448 -0.09471877 -0.0169897
-0.06981507 0.05925821 0.059623428 -0.038355395 -0.032542348 0.007849872 -0.10589589 -0.0075700255
0.061978042 -0.0030492782 0.19461718 0.011623785 -0.04048823 -0.057119936 -0.10570144 0.1266099
-0.04803036 0.06815562 -0.08942373 -0.04582797 0.13728003 0.0008408504 0.1186035 0.0036916137

fc3.weight f4 [16, 64]
00000000: b87d 9abc c4fe 443d e30e d03d 1ff3 a23d
00000010: 7485 93bd b62c 803d fa2a f13d 7d8f 92bc
00000020: 540f 0dbe 0588 8439 58a8 94bd deca 8cbd
00000030: 569e c63d 7759 de3d ee27 8dbd 40d4 bebd
00000040: b389 a5bd 6488 d63d 3ae6 74bb e0dc 87bc
00000050: 3082 81bd abc6 333c 490e 92bd 5ab3 8abd
00000060: 156c cb3d b41b b9bb 8a0b dc3b 4029 393d
00000070: fbaf 2e3d 6cd0 64bc 6864 59bd 602b a43d
00000080: e912 c53d 2a19 cebc da2b 50bc 1366 893d
00000090: a67b 73bd 54ca 923d 5a58 b0bd 6676 363d
000000a0: 801e 453c 5b2a b53c beae 903b b07d fd3d
000000b0: f6bd adbd 8e67 a1bd 3071 37bc 402e 4f3d
000000c0: b816 453d 069e f8bb 2ee6 fa3c 5cf1 cdbd
000000d0: 7c4b b23d 2852 6d3d 94c7 ea3b 7e25 763d
000000e0: 7597 b7bc c6e8 edbd 2e30 a33d 408d 84bd
000000f0: b73b cebb 687f 883d 9676 773d 742d 343d
00000100: 0c9b 15bd fa15 813d 1ce7 183d 1185 09bb
00000110: e40d e63c a908 b5bd 40fb 893d ee64 12bd
00000120: 9ab7 96bd ff9c f2bb cd8d 88bc 36b1 e6bd
00000130: d3ef 17bd d99b 96bd 235d 4a3d 24ab e9bd
00000140: 694a fbbc e20f 9e3d c7ac 893b 0029 f3ba
00000150: 9201 85bd 4d4d eebd 5052 14bd b0b2 acbd
00000160: 1322 043e 9fb4 52bd c5a0 793d fd37 bfbc
00000170: 67f4 ac3c 6e0a acbd da29 f03d 6035 193c
00000180: 7acf 0ebd 49af 063c 3d51 a53d 6138 493c
00000190: 8c45 b43d 8841 363d 2af6 ec3d 2458 0dbe
000001a0: a23b b1bd 2973 c5bd d322 cebd b200 f0bd
000001b0: 3818 9b3d 2e46 b73d 0014 7b39 90f8 233d
000001c0: 2417 453d 5ad8 85bd 984e c03c 82d2 8e3d
000001d0: 84a7 d13d aa09 aabd 2f80 aebd bde4 87bd
000001e0: 10ff bd3b 5c5e 023d 5059 af3c 0447 293d
000001f0: 76b5 e33c 6e2f cfbd 043b 083d 28be 8f3c
00000200: 6c1c 243d 7c96 073d f181 a8bc d9b4 283c
00000210: 44b7 053e b002 283d 2bd4 bbbc ce37 3c3d
00000220: dfc6 a43d 6497 083c e70a b9bd 149a 50bd
00000230: bbe9 09be ecd3 c23c 427a 593d e5ae 46bd
00000240: c9fd 32bd ae3e b13d 7ef7 d9bd 1a62 9bbd
00000250: 18de 64bd 1a73 d63c 9b98 923d d0b8 7abd
00000260: df82 84bd 25cb a8bd 611d d93c 0cc4 f5bc
00000270: 168d 283d e5c7 b1bd 9780 4e3c 8062 933c
00000280: c73e 933c 0029 5b3d 2dc8 a6bd e72c d8bd
00000290: 8ab4 77bd e88e d8bd 44b6 093d ba1b d9bb
000002a0: e8d0 f23d 94b5 06be df10 763d 30b7 593d
000002b0: eebb fb3d dc3d 24bd fad0 e33d 116e 5dbd
000002c0: be75 873d a8bc 15be 45ef 81bd 6028 c2bd
000002d0: d28d ddbd a4fc 50bd 2a38 08bd b1a1 e3bd
000002e0: bf49 26bd f470 0dbe 0837 b2bc 8842 883d
000002f0: 2a7d af3d 45f2 8f3d 3c56 c0bc fa88 bf3d
00000300: d82e d7bc b2ca e73d 07c8 8b3d de16 b0bb
00000310: e1c3 853d 21a7 6bbd b53d f6bd a273 a33d
00000320: 4f93 1dbb e183 94bc 606d e73d 50af 81bd
00000330: b75a 8f3d 369b 20bc 58a8 a9bd 5d40 003d
00000340: 60a7 a0bb 6a77 c63d 152c 173e 0aa8 bebd
00000350: 8e19 df3d 0416 ec3c 18a1 a53b b6a7 b6bd
00000360: eb35 28bd f9f4 b23d 906a 043d 4c17 e9bd
00000370: e6da 47bc 3114 48bd c4d2 9c3c e493 463d
00000380: cdab 54bd 4101 87bd 5e36 d13b c7ca aebd
00000390: c450 bebd e8f9 f3bd 443d 49bd 64d4 943d
000003a0: 1ce8 543d 1859 aebc eea8 7dbd 5231 833d
000003b0: 0279 f7bd a012 b03d c0c5 9c3b 9f12 15bd
000003c0: 5862 773d d81d e43c 9e04 123d 521d a63d
000003d0: ea99 a43d 88cb d23c 8e78 693d 5fd7 b03d
000003e0: cc12 533d 5b78 733c 4872 a73d 0e06 a53d
000003f0: 9689 66bc 2a64 cd3c 655e ccbd 28a2 f83d
-0.018858775 0.048094526 0.101590894 0.07956528 -0.072031885 0.06258528 0.11775775 -0.017890686
-0.13775378 0.00025278344 -0.072586715 -0.06874631 0.09698169 0.10856908 -0.068923816 -0.09317827
-0.08082905 0.10475233 -0.003736867 -0.016584814 -0.063236594 0.010972659 -0.07131631 -0.0677249
0.099327244 -0.0056490544 0.0067152428 0.045205355 0.042648297 -0.013965707 -0.05307427 0.080160856
0.096227475 -0.025158484 -0.0127057675 0.06708922 -0.059444092 0.07167497 -0.08610602 0.044546507
0.012031198 0.022114923 0.004415362 0.123774886 -0.08483498 -0.078810796 -0.01119642 0.050581217
0.04811737 -0.0075871972 0.030627336 -0.10055801 0.08705804 0.05793968 0.007164905 0.06009435
-0.022411088 -0.11616664 0.07968174 -0.06472254 -0.0062937397 0.06664926 0.060415827 0.04398866
-0.036524817 0.0630302 0.037329778 -0.0020983855 0.028082795 -0.088395424 0.06737375 -0.035740785
-0.07359238 -0.0074039693 -0.016669178 -0.11264269 -0.03709395 -0.07353944 0.04940523 -0.114095956
-0.03067513 0.07717873 0.004201505 -0.0018551648 -0.0649444 -0.11635838 -0.03621131 -0.084325194
0.12903623 -0.051441785 0.060944337 -0.023342127 0.021112634 -0.08400427 0.117267326 0.0093511045
-0.034865834 0.008220502 0.080721356 0.012281508 0.088023275 0.04449609 0.115703896 -0.13803154
-0.08653952 -0.09641106 -0.10065236 -0.117188826 0.07572979 0.089489326 0.00023944676 0.04003197
0.04811777 -0.065354064 0.023474976 0.06973745 0.10237029 -0.083026245 -0.08520543 -0.06635425
0.005798228 0.03182827 0.021404892 0.04132749 0.027796488 -0.10116468 0.033259407 0.017546728
0.040066168 0.033102497 -0.020569773 0.010297024 0.13058192 0.041018188 -0.022928318 0.045951657
0.08045744 0.008336876 -0.090352826 -0.05092819 -0.13468067 0.023782693 0.05309511 -0.048506636
-0.04369906 0.08654533 -0.106429085 -0.07587071 -0.055875868 0.026177932 0.071580134 -0.061211407
-0.06470274 -0.08241872 0.026503267 -0.030000709 0.041150175 -0.08680705 0.0126039 0.017991304
0.01797427 0.053505898 -0.08143649 -0.105554394 -0.06047491 -0.10574132 0.033621088 -0.0066256197
0.11856252 -0.13155204 0.060074683 0.053153217 0.12291704 -0.040098056 0.111238435 -0.054060046
0.066142544 -0.14622748 -0.06344465 -0.09480357 -0.10818066 -0.051022187 -0.033256687 -0.111148246
-0.040597674 -0.1381262 -0.021754757 0.06653315 0.08568795 0.07028631 -0.02347862 0.09352298
-0.026267454 0.11317958 0.068252616 -0.0053738197 0.065315016 -0.057532433 -0.120234884 0.079810396
-0.0024044102 -0.018129291 0.113001585 -0.06332266 0.06999724 -0.00980263 -0.08284062 0.03131138
-0.004902765 0.09690745 0.1476291 -0.09309395 0.10893546 0.028819092 0.0050546043 -0.08918707
-0.041067045 0.08738131 0.03232819 -0.11381397 -0.012198186 -0.04884738 0.01914347 0.048480883
-0.051921654 -0.06592036 0.006384655 -0.085347705 -0.092927486 -0.119129 -0.049130693 0.07267073
0.05197917 -0.021282718 -0.061928682 0.064058915 -0.12083627 0.085973024 0.004784316 -0.03639471
0.060396522 0.027846262 0.035648935 0.08111061 0.08037169 0.025731817 0.056999736 0.08634829
0.051531598 0.014860238 0.08176094 0.080577955 -0.014070889 0.025072176 -0.09978942 0.12140304

fc3.bias f4 [16]
00000000: 094c 853d 1da0 a63d c2b4 0e3e 70cc d9bd
00000010: c01e f13d e700 123e 3260 243e 9d2f 803d
00000020: 9ad8 68bd 0bf3 ff3d 3c00 563d 4f07 9dbc
00000030: d543 093e 64a0 36bd 26ee 843d 2aa5 ad3d
0.06508643 0.08136008 0.13936141 -0.106346965 0.11773443 0.14258157 0.1605232 0.062590815
-0.056847192 0.12497529 0.052246317 -0.019168524 0.13404782 -0.044586554 0.06490736 0.08478768
